data/best_model_2.pt (torch, 102142 bytes, 12 tensors)

attention.weight_matrix f4 [28, 28]
000000 a8 ca 81 bb d5 00 72 3d cd 60 53 3d a7 37 84 be
       -0.003960926 0.059082825 0.05160599 -0.2582371
000010 de ff 2a 3e c9 a7 e0 3c f2 4c 57 3d e1 7e 06 be
       0.16699168 0.027423756 0.052563615 -0.13134338
000020 11 be e7 3d a1 26 c2 3d cb 79 d5 3c 57 63 23 be
       0.11315549 0.09480024 0.026059052 -0.15955864
000030 b8 77 dd 3e 3a 90 f0 bd e5 46 fc bd 20 fb 51 3a
       0.432554 -0.11746259 -0.123182096 0.0008010138
000040 f1 c6 8c bc e6 6c 32 be 68 bd ef bd 8d e1 b3 3e
       -0.017184706 -0.17424354 -0.11706048 0.3513302
000050 df 64 75 be a4 62 87 3d db 11 9e 3d 37 51 2e be
       -0.2396426 0.06610611 0.077182494 -0.17023169
000060 76 21 db 3d c5 45 7d 3e 55 28 88 bd e4 6e 1f 3e
       0.106997415 0.24733646 -0.06648318 0.15569645
000070 f3 f5 11 3c 16 c3 8c bd 69 ce 8d be 9f 68 02 be
       0.0089087365 -0.06873147 -0.2769654 -0.12735222
000080 3b 1d aa bd 10 86 0a be 1a cc 3c be 98 87 44 be
       -0.083063565 -0.13527703 -0.18437234 -0.1919235
000090 96 7b 53 3d 4f 3e 6c 3e 25 86 02 be 01 09 07 3e
       0.051631533 0.23070644 -0.12746485 0.13187028
0000a0 e9 da 2d bc 85 91 c0 be e9 fd 34 bd 24 b8 86 3e
       -0.010611274 -0.37611023 -0.04418746 0.26312363
0000b0 5b f4 73 3e 64 b1 5b bd a7 55 e5 be 00 71 a0 be
       0.23823683 -0.05363597 -0.4479191 -0.31336212
0000c0 dc 24 c7 3e 14 ba 79 be 3e 55 79 bd 91 09 04 bf
       0.3889531 -0.2438739 -0.06087231 -0.515771
0000d0 6c a2 a2 3e c4 59 8d 3e 4a 53 a7 3d a7 e9 3b bd
       0.31764543 0.27607548 0.08170183 -0.045877125
0000e0 f1 8e fb 3e 9b 93 00 3e 10 53 d9 3d b7 50 37 be
       0.49132493 0.12556307 0.10611546 -0.17901884
0000f0 19 52 ce 3e 36 94 ab bd e6 ad ef 3d c5 1b a4 be
       0.4029701 -0.08377878 0.1170309 -0.32052436
000100 6e 25 65 3c 15 8d 5d bd e6 7c 8c 3e 97 bb f9 bd
       0.013985975 -0.054089624 0.2743904 -0.12193983
000110 cd b0 23 3e f4 27 85 3e f0 97 49 be 64 c9 24 be
       0.15985413 0.26007044 -0.19686866 -0.1609245
000120 eb 95 15 3e b7 4a d1 be a3 a6 4d be 5e 3e 31 3d
       0.1460797 -0.40877315 -0.20083098 0.04327237
000130 8f ee 14 3e 33 da 9d 3d 7f 0f 85 bd e0 74 3f be
       0.14544128 0.07707634 -0.06497096 -0.18696928
000140 64 99 1d 3e dd d7 06 be 31 eb f1 bd 74 0e d9 bd
       0.15390545 -0.13168283 -0.11812437 -0.1059846
000150 ea 09 83 3d 5e f8 fa 3d df f3 64 bd 70 d9 f6 3d
       0.06398375 0.122544035 -0.055896636 0.12053192
000160 a1 ba 21 be f8 4f 19 bd 4f 0b 3d be c7 94 d7 3d
       -0.1579385 -0.03742978 -0.18461345 0.10526424
000170 84 6b 45 be d4 ba b1 be ca d8 0d 3e 07 3d 00 3e
       -0.19279295 -0.3471285 0.1385223 0.1252328
000180 15 62 df 3d 5b 37 c4 be 8a b2 1d 3c 32 8b ca be
       0.109073795 -0.38323483 0.009625087 -0.39559323
000190 d5 b0 79 3e 7d 69 68 be 6e 9b b4 3e 23 d3 8c ba
       0.24383862 -0.2269649 0.35274833 -0.0010744076
0001a0 15 7d 80 3d ac ab 4a be 4e 25 52 3d 1e ff bb be
       0.062738575 -0.1979205 0.051305108 -0.36718076
0001b0 82 97 27 3d 8c 22 1e be 1c b0 e9 be 0b a7 c2 3d
       0.040915973 -0.15442866 -0.45642173 0.09504517
0001c0 55 84 b9 bc 12 d0 27 be 39 1f 75 be 35 d5 56 3e
       -0.022646109 -0.16387966 -0.23937692 0.2097977
0001d0 b4 24 99 3e dd 39 b2 be a2 8f 26 3e f9 4b aa 3e
       0.29910815 -0.3480977 0.16265729 0.33261088
0001e0 ea 98 bd bd 06 65 6f 3e 4a 85 b9 3e 3f 7f ca 3d
       -0.09257682 0.23378381 0.36234504 0.098875515
0001f0 c2 d7 a3 bd 7a a9 23 3e 81 76 7f be ac c6 05 3e
       -0.08000137 0.15982619 -0.2494755 0.13064069
000200 b6 a2 41 3d 6d f7 ab bc d5 f9 5d 3d 7d fb ca bd
       0.047274314 -0.020992005 0.054193337 -0.09911249
000210 df 70 a6 bb 1b 86 48 3e 62 be ce bd a7 36 e8 3d
       -0.0050793733 0.19582407 -0.100949064 0.11338549
000220 fa bb 46 3e 25 02 4c 3e 5a 04 1a 3e 39 c1 97 be
       0.19407645 0.19922693 0.15040722 -0.29639605
000230 ab 15 f0 be ed a6 1d be 51 a0 28 be 19 a3 78 bd
       -0.4689153 -0.15395708 -0.16467406 -0.060702417
000240 e0 d5 8c bd fb 5f f5 3d d6 88 49 3e c5 c4 81 3d
       -0.06876731 0.119811974 0.19681105 0.06336359
000250 96 6f 69 be 2a 62 8f 3d 67 96 a5 be de 07 f0 bc
       -0.22796473 0.07001145 -0.3234131 -0.029300626
000260 a0 4b 3f 3e 84 0f a0 3c f3 b7 8a 3e 69 01 5d be
       0.18681192 0.019538648 0.27093467 -0.21582569
000270 95 15 30 3d f6 ee 80 be f1 5e 05 3e e8 6b 24 3d
       0.042989332 -0.25182313 0.13024499 0.04014197
000280 f1 83 1b 3e 87 e1 1b be 5b c7 3d 3d 41 7c 8b bd
       0.1518705 -0.1522275 0.0463327 -0.06810809
000290 be ca 0a be a3 6b 9d be 12 0d 00 3e 0f 32 cd 3e
       -0.13553903 -0.30746183 0.12504986 0.40077254
0002a0 89 3e 0c be 97 a4 53 3e 59 7b bc 3d cb d2 60 be
       -0.1369573 0.20668255 0.09203214 -0.21955411
0002b0 7a 54 63 3e df a1 e4 3e 83 95 b0 3d 7c 19 2c be
       0.22200194 0.44654748 0.08622267 -0.16806597
0002c0 94 4c bd 3d d4 3a 47 be 9a 29 87 3e dd f4 80 3e
       0.09243122 -0.19456035 0.26398927 0.25186816
0002d0 63 9c d7 bd 6b e3 a6 3e 42 99 ce be df 2a ab 3e
       -0.10527875 0.3259538 -0.403513 0.33431146
0002e0 5a 37 ae bd e6 1a 2c 3e 09 d4 cf 3e 7f fb eb be
       -0.08506651 0.16807136 0.40591457 -0.46090314
0002f0 63 0a ab 3e 50 be 71 3e cd d0 28 bd c5 17 63 3e
       0.33406362 0.23607755 -0.041214753 0.22177036
000300 f4 f7 45 be 17 83 4d 3c 45 07 60 be d7 a3 85 bc
       -0.19332868 0.012543461 -0.21877773 -0.016313476
000310 15 f8 cf 3e d7 e2 1b bd 91 8b 12 bf 3c 20 0a b9
       0.4061896 -0.03805813 -0.5724421 -0.00013172714
000320 e4 f8 30 bd d6 ed 5c be 88 13 42 3e 17 6a da bd
       -0.04320611 -0.21575102 0.18952763 -0.10664766
000330 a0 e2 61 3e 8d ae 26 3e 01 a3 6a bd c9 f9 1a 3d
       0.22059107 0.16277523 -0.05728436 0.03783587
000340 fc 2b 75 be 01 95 36 be 11 ea a2 3e c4 42 9e be
       -0.2394256 -0.17830278 0.31819203 -0.30910313
000350 d3 c0 8d be 61 a0 0c be 4e e6 fa bc 03 fd c6 be
       -0.27686176 -0.13733055 -0.030627396 -0.38864908
000360 81 c0 89 be 19 63 83 3d cb 51 1b be 55 13 90 3e
       -0.2690468 0.06415386 -0.1516792 0.2813975
000370 6f 33 ff 3d 92 fe da bd 9e ce 34 3e c6 49 4e be
       0.12460982 -0.10693087 0.17656943 -0.2014533
000380 48 f7 4b bd 09 0b e8 be 22 3b d8 3b f4 77 71 3d
       -0.049796373 -0.4532092 0.006598846 0.058952287
000390 9e 30 18 be cc 1a 83 3d ce 8a 0e be 89 27 52 bd
       -0.14862296 0.064015955 -0.13920137 -0.051307235
0003a0 99 2f 05 bd 31 af 63 be 28 de b5 3e ba ba 92 3e
       -0.032516096 -0.22234799 0.35521054 0.28658086
0003b0 42 5a f1 bd ba 74 0c 3b 84 87 25 3e 36 6e 0a be
       -0.117847934 0.002143188 0.16164976 -0.13518605
0003c0 e5 c0 b3 3e 43 d3 bc 3d 88 ae 68 be 9c 1a d4 bc
       0.35108104 0.092199825 -0.22722828 -0.025891595
0003d0 8c 6b ab 3e 4c 04 e4 be 6c ee 8c be 93 5f 4c 3e
       0.3348049 -0.44534528 -0.2752565 0.19958334
0003e0 b3 79 5d be a2 57 a0 3e 9a 68 d3 bd 0f 3e 19 3e
       -0.21628456 0.3131686 -0.103226855 0.1496508
0003f0 7a 00 d0 bd 6b 5d a3 3d aa 74 da 3c 6c b8 1c 3e
       -0.10156341 0.079768024 0.026666958 0.15304726

premlp.0.weight f4 [144, 76]
000000 3a e2 98 bd 62 34 b1 bd 9c 8a 58 3c 19 01 36 bd
       -0.07465024 -0.08652569 0.013216641 -0.04443464
000010 8f ce 94 3d cf 25 0d 3d f7 fe e6 bd e6 c2 b5 bd
       0.072659604 0.034459885 -0.112790994 -0.088750646
000020 f1 1f 8e 3d 6f e2 ff 3d d9 3a a8 bc a9 85 9d 3c
       0.06939686 0.12494361 -0.020535873 0.019228773
000030 63 88 2f 3e ed 01 34 bd 35 82 07 3e 77 ee 98 bc
       0.17141871 -0.04394715 0.13233264 -0.018668396
000040 db 4a 2f 3d bd d9 2d bd dc d7 a5 3d fc b2 d8 bd
       0.042795997 -0.04244398 0.080978125 -0.105810136
000050 6a 90 fd 3c dd 26 6f bd 93 d9 31 bd 4a 51 9e bd
       0.030952651 -0.058386672 -0.043420386 -0.077303484
000060 2a a6 be bc 17 a0 a5 3d 3a e1 db bd d5 6b d3 bd
       -0.023272593 0.08087175 -0.10736318 -0.10323302
000070 83 24 c5 3c 19 c2 c7 3d 3b bb 56 bd 90 28 0e 3d
       0.024065262 0.09753818 -0.05242465 0.034706652
000080 a6 73 b4 3d a7 4c 98 3d 7b 19 05 3e c5 fa b0 3d
       0.08811121 0.07436495 0.12998001 0.086415805
000090 b3 6a 99 3d 82 91 97 3d 44 46 50 3e 0e c7 22 3d
       0.074910544 0.074008 0.20339304 0.039740615
0000a0 60 76 c0 bd 28 0e 22 be 17 a6 d3 bd 6f e8 09 be
       -0.09397578 -0.15825713 -0.103344135 -0.13467573
0000b0 e3 00 cf bd be 22 fc ba 86 86 0c be 11 18 01 bd
       -0.10107591 -0.0019236428 -0.13723192 -0.031517092
0000c0 27 4d 13 3d 96 08 a6 3b 3b d5 1a be f3 f0 b7 3a
       0.03596225 0.0050669415 -0.15120403 0.00140336
0000d0 61 e5 19 3c 1e 5c 58 3d 90 df ee 3d e5 f3 7d 3d
       0.009393067 0.052822225 0.11663735 0.062000174
0000e0 43 7e b8 3b 3d 50 1d 3c 2e d0 1b bb 64 d5 a2 3d
       0.005630286 0.00960165 -0.0023775208 0.07950857
0000f0 bf ef 9d bd 90 33 5b 3d c7 15 36 3d 56 2e 8e bd
       -0.077117436 0.05351597 0.044454362 -0.06942432
000100 3b 95 e5 3d 9b cd 08 bc 1a d0 52 3d 1b 3d cd bd
       0.11210104 -0.008349801 0.051467992 -0.100214206
000110 84 cf 10 bd 92 53 c3 bd 5a 08 86 bd a3 03 e2 3c
       -0.035354152 -0.09537424 -0.06544562 0.027589625
000120 fb ee 66 bc ae 0c a7 3c e8 91 d6 a0 50 53 7d 3d
       -0.014095063 0.020391788 -3.6349563e-19 0.06184703
000130 ec b0 fb 3d fd 04 2e bc 51 2a 08 bd 75 71 ec bd
       0.122896045 -0.0106213065 -0.03324348 -0.11545078
000140 8d 9b b8 bd 40 3e 8c bd fa 5c 8e bd 14 3d f0 3c
       -0.09014044 -0.06847811 -0.069513276 0.029326
000150 6e d5 c7 bd 5a d4 af bd 42 e1 89 bc 61 ae ee 3d
       -0.09757505 -0.08585425 -0.016831044 0.11654354
000160 d7 e8 11 3d 2d f8 5b 3d 66 5a d3 bd 6e 96 b9 bd
       0.035622444 0.053703476 -0.103199765 -0.09061895
000170 4b 9f 3f bd 1c 40 ed bd 29 0d 87 3d 24 68 88 3d
       -0.046782773 -0.115844935 0.06594307 0.06660488
000180 45 d7 22 3d 79 8d 1a 3d 89 df 71 3d 4c ab 92 bd
       0.03975608 0.037732575 0.05905107 -0.071615785
000190 ee b6 59 3b 6a 01 0f bd 12 88 23 bc 0b 27 b1 3d
       0.0033220607 -0.034913458 -0.009981172 0.08650025
0001a0 3b 18 a5 bc 94 2e d0 b9 a7 a7 9d 3d ae d4 48 3c
       -0.020153156 -0.00039707555 0.07697993 0.012257738
0001b0 73 84 6c 3d cc 3c e6 3d 19 68 04 3e 25 8b 9e bd
       0.0577435 0.11242065 0.12930335 -0.077413835
0001c0 25 ac 55 3d f3 de 80 bd 09 3d c2 3c cc b2 e7 3d
       0.052166123 -0.06292524 0.023710744 0.113134
0001d0 44 05 c4 3d c4 f8 1b 3e ea 0d 14 3e dc c3 68 3d
       0.09571317 0.15231615 0.14458433 0.05682741
0001e0 d3 ad 33 3e 2c 0a 0c 3d 22 85 eb bd f2 4d 29 bd
       0.17546777 0.03418939 -0.115000024 -0.0413341
0001f0 f7 22 54 bc d4 52 a7 3c 78 e4 cd bd e0 a0 8e bd
       -0.012947789 0.020425238 -0.100533426 -0.06964278
000200 cc b2 ad 3c 31 bd 87 3c a9 62 68 3d 8c d2 cf 3c
       0.021203421 0.016569706 0.056734715 0.025368951
000210 d6 44 09 3e 6b 0d e7 bc f4 d7 79 3d 0a 26 95 3d
       0.13405165 -0.02820464 0.060996965 0.07282646
000220 cb 9b 44 3d e9 08 e6 3c 82 49 8a 3e 6a 40 6e 3e
       0.04800014 0.02808042 0.27009207 0.2326676
000230 39 a6 dc bd 29 c3 b1 bd 28 ea 1e be c4 9d c2 bd
       -0.10773892 -0.08679802 -0.15519011 -0.09502748
000240 b5 35 55 be 7c 8a 68 3e 0c 71 21 3d eb f9 09 3e
       -0.20821269 0.22709078 0.03941445 0.13474242
000250 89 94 21 3e 22 e9 45 3e 66 1d 93 a5 f1 95 fc bc
       0.15779318 0.19327214 -2.5520356e-16 -0.030833216
000260 9e de bc bd f5 7d 68 3b 4d 57 1c 3c 75 bf 07 bd
       -0.09222148 0.0035475467 0.0095422985 -0.033141572
000270 83 9e cd 3d e0 8f 81 bd 6c 2a eb 39 17 3c af 3c
       0.10039999 -0.0632627 0.000448543 0.021390958
000280 5f d0 d6 3d 52 90 10 be 94 8b 8a bd ad a7 1d be
       0.104889624 -0.14117554 -0.06764904 -0.15395994
000290 36 f3 25 3e b4 ed 3f 3c b7 aa c5 3d fb 00 80 bd
       0.16206059 0.011714388 0.09651702 -0.06250187
0002a0 13 2f ca 3d 0b f4 d1 3d fa 91 92 bb cc 43 5d bd
       0.0987226 0.102516256 -0.004472968 -0.054019734
0002b0 82 7b c7 bd 64 02 5a bc 00 7f 50 3b d9 4e a2 3d
       -0.09740354 -0.013306234 0.003181398 0.07925195
0002c0 79 64 19 bc 87 f8 97 bd b6 ff 06 be 01 97 a8 bc
       -0.009362333 -0.0742045 -0.13183483 -0.020579817
0002d0 a5 d5 47 bd fc 26 16 3e c7 5c 80 bd cf 8b bf 3d
       -0.04878773 0.14663309 -0.06267696 0.09352838
0002e0 f3 09 ac 3d 07 d4 92 bd d0 79 8f 3d 2f 6c ba bc
       0.08400335 -0.07169347 0.07005656 -0.022756664
0002f0 7a c3 be 3d 00 db 07 be de f8 5c 3e cd aa 37 be
       0.09314628 -0.13267136 0.2157931 -0.17936249
000300 42 bc ad bd cd 19 8e 3c 77 15 13 be 8a 11 ac bd
       -0.08483173 0.017346287 -0.14363657 -0.08401783
000310 fb 7f 54 bd c2 9a 3a be 81 83 19 3a 3b 62 7a bd
       -0.051879864 -0.18223098 0.00058560824 -0.061128836
000320 a0 c7 f9 3d fd 45 85 3c a8 4f 73 bd f3 6d 85 bd
       0.121962786 0.016268725 -0.059402138 -0.06515112
000330 b3 20 44 3d d0 b5 c7 3d 29 73 6e 3d 13 c8 4d 3c
       0.047882747 0.09751475 0.058215294 0.012559908
000340 32 c4 97 3d 78 4b a6 ba b0 57 e7 3d 1e 85 b3 3c
       0.07410468 -0.0012687286 0.11296022 0.021914061
000350 cb 6f 92 bc f1 49 ef 3d a3 09 10 3c 16 12 55 bd
       -0.017875573 0.11684025 0.00879136 -0.0520192
000360 60 cf 80 3d 3e 84 c0 bd 86 48 20 3d 58 2a a5 bd
       0.06289554 -0.09400223 0.039131664 -0.08064717
000370 1a 99 12 be c7 3f 50 bc 14 7e 76 bb 1b a7 2e be
       -0.14316216 -0.012710518 -0.003761177 -0.17055933
000380 59 28 3b 3c 03 af d3 3c e7 96 f3 a4 36 4b b8 be
       0.011423194 0.025840288 -1.0564009e-16 -0.3599488
000390 7e 62 8e 3d 2d 0c aa bc 2a e3 b7 bd b2 9f f1 bd
       0.0695238 -0.020757759 -0.08978875 -0.117980376
0003a0 1f 78 0e be 61 6a 60 bd bb 18 57 bc 1e 9a 28 3c
       -0.1391301 -0.05478895 -0.013128455 0.010290651
0003b0 cc 31 92 3d 1d 9f a0 3d f4 d4 45 bc bd 57 a8 bc
       0.07138404 0.078428484 -0.012074698 -0.02054965
0003c0 89 9b 2d 3d 98 40 c7 3d 99 75 0a 3e 40 de 6c 3d
       0.042384658 0.09729117 0.13521422 0.05782914
0003d0 40 16 d3 bd c6 4a aa bd 7f bb a4 bd 08 bd 9a bd
       -0.10306978 -0.08315043 -0.080435745 -0.07555586
0003e0 b9 e4 02 be 6f ab 1e bb 4c c0 b3 3c 62 60 a2 bd
       -0.12782563 -0.002421107 0.02194228 -0.0792854
0003f0 67 9d 4b bd f8 2a b7 bd 8d c1 f9 bc 34 95 8c 3d
       -0.049710657 -0.089437425 -0.0304878 0.06864396

premlp.0.bias f4 [144]
000000 46 74 7a 3c d9 05 81 bd cd 9f b6 bd 41 fe 4f 3d
       0.015286511 -0.062999435 -0.08917198 0.050779585
000010 84 dc 08 3e da 63 06 3e c7 50 8a 3d c1 f7 44 bc
       0.1336537 0.13124028 0.06753688 -0.01202196
000020 32 09 35 bb d0 ba 14 3e 6d a1 c6 bb 33 d7 9c bd
       -0.002762389 0.14524388 -0.006061724 -0.076582335
000030 60 e2 aa 3c d6 1d 55 bd c4 1f a9 bd af 71 f0 bc
       0.020859897 -0.052030407 -0.08258012 -0.029351084
000040 1e ea 6e 3d ca f4 15 3e 41 44 a6 bd 5c 2f b5 bd
       0.05832874 0.14644161 -0.08118487 -0.08846924
000050 48 d5 73 3c 9f 1e be 3d 70 a7 a6 bd 9a 36 08 3b
       0.014882393 0.09283184 -0.08137405 0.0020784498
000060 38 7a 4a 3c cd 20 63 3d 27 a1 5b bd 26 be 8c bd
       0.012358241 0.055451203 -0.053620484 -0.068722054
000070 32 a7 a5 ba d1 5f 78 3d 72 89 e0 3c 10 3a 24 3d
       -0.0012638329 0.060638253 0.027409289 0.040094435
000080 a0 11 e7 3c ee 9e 05 be 3a cd b9 bc b0 77 87 bd
       0.028206646 -0.13048908 -0.022680867 -0.066146255
000090 a0 d3 be bc aa 36 eb bd 9d 85 fb 3d a1 15 f6 3d
       -0.02329427 -0.11485036 0.12281344 0.12015844
0000a0 ca 19 43 bd af dd 29 bd a8 d4 d0 bd 98 86 cc bd
       -0.047632016 -0.04147118 -0.10196811 -0.09986609
0000b0 de 6a 33 bd 8a ab 18 3c 8e 32 d9 3c f8 e6 90 3d
       -0.04380309 0.009318242 0.026513364 0.07075304
0000c0 00 49 12 bd 95 36 95 bd 29 50 b7 3d a0 d5 fc bc
       -0.03571415 -0.07285801 0.08950836 -0.030863583
0000d0 29 8e a8 bd 5f a5 92 bc 4d 32 8b bd ca 82 f3 3d
       -0.0823024 -0.01790112 -0.067967035 0.118901804
0000e0 68 60 0f bb fb cc 7d 3d b4 cb 11 3d e8 0a 71 3c
       -0.002187753 0.061963063 0.035594657 0.014712073
0000f0 d9 21 7a 3d 64 e2 05 bd 8e 19 87 bd 4a 8e 42 3d
       0.061067436 -0.032686606 -0.06596671 0.04749898
000100 86 4e 1a 3d 72 18 fc bd 68 26 d8 3d 77 34 40 bc
       0.037672542 -0.1230935 0.105542004 -0.011731259
000110 f3 65 94 3d 0b 10 df 3c 2a a7 9a bd 89 d4 8e bd
       0.07246008 0.02722933 -0.07551415 -0.069741316
000120 4f 75 82 3d d4 31 a6 3c 74 4c 6f 3d 6f ba a3 3d
       0.06370031 0.020287432 0.05842252 0.07994544
000130 0a 95 3e bd 7f 98 ee bd 0c 4a ef bc 51 06 d4 3b
       -0.046528853 -0.1165018 -0.029210113 0.0064704795
000140 6a 1c ee 3c b1 e0 97 bb da f4 e6 3d b5 c2 7e bd
       0.029066283 -0.0046349396 0.112771705 -0.062197406
000150 cc 13 ca 3d 23 f0 17 3d 56 e9 d6 3d 62 a8 8b 3d
       0.09867057 0.037094247 0.10493724 0.06819226
000160 f8 3f fd bc d5 a0 58 bc 4f 90 08 3e d6 10 83 3c
       -0.030914292 -0.013221939 0.133363 0.015999239
000170 90 d4 79 bc f7 32 5f bd 25 52 2e 3d c3 91 7a bd
       -0.015248433 -0.054491963 0.042558808 -0.061174165
000180 78 f2 c2 3d 57 aa c4 3d 38 c0 92 bd 5e 03 e9 bd
       0.095189035 0.09602802 -0.07165569 -0.11377595
000190 5d 32 e3 bd 53 5a fd bd d8 4e 2a bd e2 25 a8 bc
       -0.110935904 -0.123707436 -0.041579098 -0.020525876
0001a0 37 70 03 3c 6f cf 33 3c af 3c f0 3d 8e 36 5e bc
       0.00802236 0.010974749 0.117303245 -0.013562812
0001b0 da c2 8e 3d 1c c1 5d 3d cf 3c d3 bc d8 d7 d3 bd
       0.06970759 0.05413924 -0.025785832 -0.10343903
0001c0 95 82 9b bd 22 8b 78 3d e7 93 8f bb d9 fc 7e bd
       -0.07593266 0.060679562 -0.004381645 -0.062252853
0001d0 c2 bc 3a 3c 89 83 29 bd 55 24 f8 3c 09 1c 77 3d
       0.011397542 -0.041385207 0.030290762 0.06032947
0001e0 17 ce 04 bd 95 32 c8 3d 28 b6 85 3d eb 5e c2 bc
       -0.032423105 0.09775273 0.06528884 -0.023726901
0001f0 46 9a c0 3d 31 95 a2 3d 07 8c c0 bd 63 6c 33 bc
       0.09404425 0.07938612 -0.09401708 -0.010951134
000200 f2 7a eb bd 6f a0 1b bc 3e a2 37 3c 2f d1 1b 3c
       -0.11498059 -0.0094987 0.011208115 0.0095103225
000210 58 c4 67 bd 18 5f f5 bd 7b 39 95 bd 28 e3 9c 3d
       -0.056583732 -0.11981028 -0.07286354 0.07660514
000220 5b a5 13 3e 39 22 a4 3c 12 f3 85 bd d9 4c 4a bd
       0.14418547 0.02003585 -0.065405026 -0.049389694
000230 1e 5a 6c 3a 5b 91 8b bd 71 61 02 be 7a 1a be 3c
       0.0009016114 -0.06814834 -0.12732483 0.023205984

cnn.0.weight f4 [3, 1, 4, 4]
000000 3b 75 b1 be 93 d8 96 be 41 a7 64 bd 2f ca d6 bd
       -0.34659752 -0.29462108 -0.05582357 -0.10487782
000010 ae 8e a8 be 71 c3 c6 3d 19 07 67 3e b9 30 9f ba
       -0.32921356 0.09705246 0.22561301 -0.0012145258
000020 f5 1d cd 3d 2e 46 8c be 30 77 87 be 7e e2 e6 bd
       0.100154795 -0.27397293 -0.2645812 -0.11273669
000030 82 e0 a7 be 99 9d 30 bd 45 5e 86 be bc cd a6 be
       -0.32788473 -0.043119047 -0.26243797 -0.32578838
000040 b0 19 62 3e 14 2d 2e 3e a7 b6 0e 3e 60 53 58 be
       0.22080112 0.17009383 0.13936864 -0.21125555
000050 ae 72 7a 3e 5e b5 05 bd d9 6b 2f be 7b 53 2a be
       0.2445781 -0.03264367 -0.17130984 -0.16633408
000060 73 60 73 3e 85 f6 58 be c6 32 c1 3d 05 c8 d1 bd
       0.23767261 -0.2118779 0.094335124 -0.10243229
000070 27 a3 bf be 59 5a 79 be 23 99 d4 bd d9 73 14 be
       -0.37429163 -0.24350871 -0.10380771 -0.14497317
000080 fc d4 1c be 8f e1 3b 3d 0e 33 71 3e 8c 08 10 3d
       -0.15315622 0.045869406 0.23554632 0.0351644
000090 e1 a9 9f be 63 ee de 3c 1b 5d 90 3d 41 f5 9e be
       -0.31184295 0.027213281 0.070490085 -0.3104649
0000a0 89 01 98 be a1 1f 7c be d8 1e 74 be 49 fc 30 be
       -0.2968867 -0.2462144 -0.23839891 -0.17283739
0000b0 b8 2c 4f 3d b3 b8 3d 3e a3 af 0b 3e 0a f4 8f bd
       0.050579756 0.18527488 0.13641219 -0.07028969

cnn.0.bias f4 [3]
000000 9f 40 d8 3d 03 9a c8 bc 47 a2 1d be
       0.105592005 -0.024487501 -0.15393935

cnn.3.weight f4 [4, 3, 4, 4]
000000 69 8e af bc 76 8b dc 3c 34 39 39 3e 54 a0 12 3c
       -0.021430211 0.026921969 0.18088228 0.008949358
000010 3f 38 19 3e 90 2b 00 3d ef 7c 3e 3e 3b 05 47 3e
       0.14962862 0.031291544 0.18602346 0.19435589
000020 5e a5 54 3e 4b 50 35 3e 92 9c bf bc a5 4d 32 3e
       0.20766208 0.1770641 -0.023390088 0.17412432
000030 4e e6 b4 3d 5b 93 32 3d 16 ab 33 3e c5 9a d8 3d
       0.0883299 0.04359756 0.17545733 0.10576395
000040 bd b8 6d bd bb 79 58 3d aa c1 ae 3b bf 51 88 bd
       -0.05803751 0.052850466 0.005333145 -0.06656217
000050 7f df 07 3e 7d f7 9a 3c f6 8e 14 3e 7f fe c2 3d
       0.1326885 0.01891684 0.1450766 0.095211975
000060 1f 2b c6 3d 81 bc 22 3d f1 0c 5d 3c 74 9d 7b 3c
       0.096761934 0.039730553 0.013491855 0.015357364
000070 1f 37 06 3e 08 b3 5f 3d 16 3f 97 bd 14 2f a4 3d
       0.13106965 0.054614097 -0.073850796 0.08016792
000080 0b a7 44 3e c4 c2 e8 3d f6 e7 9e bd 44 f8 a6 3d
       0.19204347 0.113652736 -0.07759087 0.08152822
000090 17 f7 1c 3e aa 4c 0c 3e a5 d5 cd 3d 10 de 3d 3e
       0.15328632 0.1370112 0.10050515 0.18541741
0000a0 bf 2d 2d bd a0 ff 9a 3d 7d 66 54 3e 6e 97 8a 3d
       -0.042279955 0.07568288 0.20742221 0.06767164
0000b0 0f 15 8c bc 45 95 08 bd 6a ea c7 3d 0b 65 02 3e
       -0.017099885 -0.03334548 0.09761508 0.12733857
0000c0 5a 0f 07 3d a5 c2 d6 3d 2e 12 dc bc 71 cf c7 3d
       0.032973625 0.10486344 -0.026864138 0.09756363
0000d0 1f 0e fb 3b 0e 0e 52 3d 77 d7 1b 3e 0a 16 c9 3d
       0.0076615955 0.051282935 0.15218912 0.09818657
0000e0 82 6a 27 3e 30 63 9d bc 18 00 45 bd de 97 5c 3b
       0.16349223 -0.019212335 -0.048095793 0.0033659856
0000f0 4f c6 af 3d d7 05 7f bd 71 45 31 bd 10 16 77 bc
       0.08582746 -0.06226143 -0.043279115 -0.015080944
000100 9d 22 37 3e ab e2 17 3e 9a 85 a0 3d f2 21 e5 3d
       0.17884298 0.1483256 0.078379825 0.11188115
000110 5e cb 18 3e 1e b2 c7 3d 12 82 1e 3e f6 c7 a8 3d
       0.14921328 0.0975077 0.15479305 0.082412645
000120 42 77 29 3d 30 84 61 bd 8f a1 5b bd da 74 af bd
       0.0413735 -0.055057704 -0.05362087 -0.085672095
000130 88 fc d0 3b 4a db b6 3d 8c 7b 21 3d 3a f6 18 bd
       0.0063777603 0.08928545 0.039424464 -0.037344195
000140 1a 31 28 3e 4e 64 ab 3d 2b a3 1f 3d 6e 69 58 bd
       0.16424981 0.08368741 0.03897397 -0.05283492
000150 30 6d 35 3e c5 5a a2 3d 9d 9c 1d bd c4 a7 c1 3d
       0.17717433 0.07927469 -0.038479436 0.09455827
000160 d7 86 50 3e 64 f1 af 3d b2 e0 b8 bb f7 8c da 3b
       0.20363937 0.085909635 -0.00564202 0.0066696364
000170 e2 f0 bc 3d f1 40 02 3d 3c 78 76 3b 1f 86 3b 3e
       0.09225632 0.031800214 0.0037608286 0.18312882
000180 13 56 7e bd 4b 72 e2 3d 5f 8c 2d 3d a0 0e 0e 3e
       -0.062093806 0.11056956 0.042370196 0.13872766
000190 f1 70 d3 3d 6b d0 bf 3d ba 30 f2 3d 72 a2 29 bd
       0.10324276 0.093659244 0.118257 -0.041414686
0001a0 f8 c8 ad bc c2 75 69 bd d6 d5 26 3e 83 b5 4f 3c
       -0.021213993 -0.05699707 0.1629251 0.012677553
0001b0 3c bb d4 3c 59 6a 75 3d aa 86 19 3d c7 d3 14 3e
       0.025968187 0.059915874 0.03748194 0.14533912
0001c0 0a b4 05 3c c4 53 d2 3d 4f 9f 27 3e 62 ac c2 3b
       0.0081606 0.10269883 0.16369365 0.00594096
0001d0 b5 d0 4d bd ee 9b 93 3d da 9f 47 3d bb 2f 80 3d
       -0.050247867 0.072074756 0.04873643 0.06259104
0001e0 10 26 25 3e a2 48 94 3d 3f 2f ea 3d 13 3a ad bd
       0.16127801 0.07240416 0.11434793 -0.084583424
0001f0 0f ea 79 3d a7 5f 0f 3d ae 28 0d 3e 16 34 01 3e
       0.06101423 0.03500333 0.1378505 0.12617525
000200 a5 c4 1e 3e 93 42 0a bd f4 39 0c 3e 45 5c 47 3d
       0.15504701 -0.033754896 0.13693982 0.04867198
000210 56 0a 25 bc 5c c1 07 3e 75 6f 92 bc e6 42 8c 3d
       -0.010073265 0.13257354 -0.017875412 0.06848697
000220 94 c4 2b 3e ea d4 34 3e 1b 6b 3e 3d de eb 0f 3e
       0.16774207 0.17659345 0.046488862 0.1405482
000230 ac 15 47 3e 0e 8a 46 3e 69 f5 1e bd 61 e8 3e 3e
       0.19441861 0.19388601 -0.03880826 0.18643333
000240 44 e6 20 3e b1 19 df 3d c9 33 e2 bc d0 24 9d bd
       0.1571284 0.10893572 -0.027612584 -0.07673037
000250 da da 86 ba 4f b8 00 3e 64 3d 5b 3e cf 5a 7c 3b
       -0.0010288612 0.12570308 0.21410137 0.0038506275
000260 04 a5 10 3c 01 c0 66 bd 5c ff 12 3e 62 8e 33 3d
       0.008828405 -0.056335453 0.14355224 0.04383696
000270 97 d3 1f 3c 18 1b 1b bd b5 a6 5b 3d 7a 46 7b 3d
       0.009755037 -0.037867635 0.05362578 0.06134651
000280 de 7d 11 3d 83 24 ae 3d 92 1b a1 3d 5f 14 9f bd
       0.035520427 0.08503058 0.07866587 -0.07767557
000290 97 1c 94 3c 6d b6 ba 3d 34 56 18 3d 5f 7b 76 3c
       0.018080039 0.09116826 0.037191585 0.015044062
0002a0 67 cb 33 bd b8 ae b0 bc 90 05 07 3e a5 b7 29 3d
       -0.04389515 -0.021567687 0.13185716 0.041434903
0002b0 b1 e2 d0 bd c4 78 b2 bc c3 4b a4 3d a7 8a 9c bd
       -0.10199488 -0.021786101 0.08022263 -0.07643633
0002c0 89 3f 3d bd f0 1a 89 bd b3 44 fd 3c 06 89 5f 3d
       -0.04620317 -0.06694591 0.030916547 0.054574035
0002d0 ee ef b6 3d ab 7b b8 3d 22 f6 5f bd 5f 03 af bd
       0.08932482 0.09007963 -0.05467809 -0.08545565
0002e0 dd 0b 16 3e 63 ff 24 3d b1 20 36 3e cc fe a7 bc
       0.14652963 0.04028262 0.17785908 -0.020507239
0002f0 f2 12 2f 3d 0e 4a ac bd d3 df 23 3d f6 5d 11 3e
       0.042742677 -0.08412562 0.040008377 0.14196

cnn.3.bias f4 [4]
000000 02 d3 fd 3d 40 a8 37 3d 49 4a df 3d d8 56 14 3e
       0.12393762 0.04483819 0.10902841 0.14486253

cnn.6.weight f4 [2, 4, 4, 4]
000000 91 2f 06 3e 57 c1 ea 3d 95 86 87 3d ea d2 a6 3d
       0.13104083 0.11462658 0.06617466 0.081456974
000010 83 a7 cf 3c 7d 81 33 3e b3 05 0c 3e 0d dc f0 3c
       0.02534843 0.17529865 0.13674049 0.029401803
000020 b4 33 0a 3e 77 2a a1 bc 23 14 13 3e e7 de 09 3e
       0.13496286 -0.01967357 0.1436315 0.13463937
000030 32 cb 1e 3d a0 c0 90 3d c2 57 db 3d 04 e5 43 3b
       0.038768 0.0706799 0.10710098 0.0029891143
000040 a7 35 95 3b d0 68 05 3e 93 6b 1b 3e a3 31 f4 3d
       0.004553515 0.13028264 0.15177755 0.1192353
000050 1d 5d 96 3d 5b 33 59 3d 20 95 87 3d 30 fc 88 bd
       0.07341979 0.053027492 0.0662024 -0.06688726
000060 ad 76 4e bd 49 c0 9f 3c 79 99 9b 3d c6 8d 9f bd
       -0.050406147 0.019500868 0.07597632 -0.07790713
000070 ef c5 80 3d 16 6d d2 39 ea 24 0c 3d d3 06 49 3c
       0.06287753 0.00040135597 0.03421489 0.012269693
000080 fe 9b 19 3c ce 1d d5 3d ea 6d 08 3e 92 c0 fd 3d
       0.00937557 0.104060754 0.13323179 0.123902455
000090 33 5a 05 bd 75 b9 07 3e ca 9b 0e 3e 5a 73 40 bd
       -0.032556724 0.1325434 0.13926616 -0.046985008
0000a0 a5 53 e1 bc f5 a5 21 3e 04 cc 04 bd ff 45 08 3e
       -0.027505705 0.15785964 -0.032421127 0.13307951
0000b0 3a c4 46 3d c8 f9 99 bb d6 1e a1 3d 0b 40 bd bb
       0.04852698 -0.0046989657 0.078672096 -0.005775457
0000c0 99 4d 5d 3c 0e 0a 64 bd 35 b5 40 3c bd a1 1c 3e
       0.01350727 -0.05567365 0.011761953 0.15296073
0000d0 92 34 d8 bc dd 0f 12 3e 25 d1 ad 3d 9e 7d a4 3d
       -0.026392255 0.14263864 0.08487157 0.08031772
0000e0 8a d1 18 3e 9d df 6e 3d 6a 50 d4 bb 3a 65 16 3e
       0.14923683 0.058318723 -0.0064793127 0.14687052
0000f0 60 44 93 3c 30 30 a4 bd 0d 51 1d 3b 27 d7 94 bd
       0.01797694 -0.080170035 0.002400461 -0.072675996
000100 15 6b d8 3d 8a e5 75 3c b6 90 b2 3d fe f3 27 3e
       0.10567299 0.01500834 0.08719008 0.1640167
000110 31 f4 b1 3d 36 85 fc 3d 55 46 29 bc 8a 81 62 bd
       0.08689154 0.123300955 -0.01033171 -0.05529932
000120 17 fc 2f 3d 66 fb 13 bd a9 40 0a bd ed 5f 1c 3e
       0.04296502 -0.036128424 -0.03375307 0.15270968
000130 19 e2 e9 3d c4 52 a6 3b d2 1c 39 bd b7 64 12 3e
       0.11420078 0.0050757844 -0.0451935 0.14296232
000140 d1 e0 13 3e b5 18 90 3d 13 be 14 3e 49 27 ef 3c
       0.1444123 0.070359625 0.14525633 0.029193537
000150 c9 7d 1b 3e a3 71 d8 3c 19 d8 14 bc 0e 40 49 3d
       0.15184702 0.026421374 -0.009084725 0.049133353
000160 d3 78 8f bd 26 84 d6 3d 96 20 b3 bc cd 84 11 3e
       -0.07005467 0.10474424 -0.021866124 0.14210816
000170 c4 0d 10 3e 3f c8 be 3d 3a 10 1e 3e d3 7d 93 ba
       0.14067751 0.09315538 0.15435877 -0.0011252709
000180 06 d6 9d bc 61 5b e3 3d 22 b1 86 bd ab 41 95 3d
       -0.019267093 0.111014135 -0.06576754 0.07287916
000190 45 ec 05 3e 82 a5 94 3d e5 6c 62 bc 7c f7 04 3e
       0.13078411 0.072581306 -0.013819908 0.12985033
0001a0 d1 46 11 3e c0 40 de bc eb 66 db 3d 4b 1c 18 bd
       0.1418717 -0.027130485 0.107129894 -0.037136357
0001b0 38 02 2e 3c 56 7a 20 3e b7 37 50 3d 7e eb 80 bd
       0.010620646 0.15671667 0.050834384 -0.062949166
0001c0 a0 ea 59 bb ca 81 74 bd ec bc 12 3e 09 ed 20 bc
       -0.003325142 -0.05969409 0.1432988 -0.009822139
0001d0 7e 32 e8 3d 62 0c 15 3e ec 21 a7 3d 79 62 a5 3d
       0.113377556 0.14555505 0.08160767 0.08075423
0001e0 74 5e 78 3d 9c 95 4c 3d 1e 65 9d 3c 8e 0a 2d 3d
       0.060636953 0.049947366 0.019213255 0.042246394
0001f0 00 09 04 3d 05 05 90 bd c9 6d de 3b ce 08 61 bc
       0.032235146 -0.070322074 0.0067879898 -0.013735009

cnn.6.bias f4 [2]
000000 36 62 91 3a 22 a7 f5 3c
       0.0011091891 0.029986922

postmlp.0.weight f4 [64, 190]
000000 94 89 55 bd 66 0d d4 3b a2 c5 2f 3d 1d 97 55 3c
       -0.052133158 0.006471324 0.042913087 0.0130365165
000010 93 c1 28 bd d9 99 ec bc f8 f9 4f bc 4c 09 5d 3d
       -0.04120023 -0.028881954 -0.012693875 0.053963944
000020 b0 20 97 3d 7a f0 d9 3c 0e 59 d7 bc 6e 67 a9 3c
       0.073792815 0.026603926 -0.026287582 0.020679202
000030 58 11 80 3d f2 c5 8a 3c 7b 6c 81 bd 04 7d bc bb
       0.06253308 0.01694009 -0.06319519 -0.0057522077
000040 24 9e eb 3c 4a 46 cf 3b 75 29 57 3d 78 6a 3e 3d
       0.02876193 0.006325518 0.05252977 0.046488255
000050 7a cb 11 3d c1 f0 ab 38 96 24 60 3d 90 9f 11 bd
       0.03559444 8.198759e-05 0.05472239 -0.03555256
000060 e1 d9 45 bd ce 09 dc bc 88 5a 2f 3d ef 81 99 ba
       -0.04830349 -0.026860144 0.042810947 -0.0011711697
000070 59 c1 be bc b4 32 58 bc 9b 7f 74 bd 19 65 6f bc
       -0.023285555 -0.013195682 -0.059692007 -0.014611506
000080 23 9d c4 bc 5a 91 12 3c f9 ff 6c bb f0 7c 3f 3b
       -0.02400071 0.008945787 -0.0036163314 0.0029218756
000090 c0 0a 55 bc 53 73 d1 bc 3f 99 85 3c b6 cb c0 bb
       -0.013003051 -0.025567686 0.016308425 -0.0058836592
0000a0 f3 69 da bc ef 7a 44 bd b0 7b 2a 3d 8f fa 22 3d
       -0.026661849 -0.0479688 0.041621864 0.039789733
0000b0 d0 93 10 3d 54 51 74 bd 76 18 04 3d 42 bd 29 3d
       0.035297215 -0.059647873 0.03224989 0.041440256
0000c0 23 0d 99 3c ab b0 34 3d e9 73 7b bd 15 1d f8 3c
       0.018683022 0.044113796 -0.061389837 0.030287305
0000d0 5b da aa 3c 86 4c de 3c 21 36 1d bc 38 58 02 bc
       0.020856073 0.027136099 -0.009595425 -0.007955603
0000e0 49 63 c4 3a 89 48 88 bd b1 82 4c bc e5 96 74 bd
       0.0014983203 -0.0665446 -0.012482331 -0.059714217
0000f0 7e 10 35 bd ab b5 8c bd 33 76 1e 3d 3c 68 6e 3c
       -0.04420518 -0.06870588 0.038686942 0.014551219
000100 a5 dd 6b bd 32 59 fc 3c 4a f7 18 bd 86 2f 9f bd
       -0.057584424 0.03080425 -0.03734521 -0.07772736
000110 2f 89 3f 3d 5f 83 6c bc 38 9d 8c bc d0 05 4b bc
       0.046761688 -0.014435618 -0.017164811 -0.0123915225
000120 e8 5a 3f bc 66 9a 90 bd 78 4a 9f bd 0f de 80 bd
       -0.011679389 -0.07060699 -0.07777876 -0.06292354
000130 23 40 83 bd 1c 4d 36 bc 8e db 1e bc 7d 9d 07 3d
       -0.064087175 -0.011126783 -0.009695901 0.033109177
000140 78 49 04 3d 5f 1d 9f bd 32 e4 09 bd 18 73 98 bd
       0.032296628 -0.07769274 -0.03366489 -0.074438274
000150 98 97 2a 3d 0f fb b7 bc 52 d5 61 bd 8d 9d 80 bd
       0.041648477 -0.022458581 -0.05513508 -0.062800504
000160 41 52 12 bd 49 fc b6 bc 70 85 25 bd a0 0f 1d bc
       -0.035722975 -0.022337096 -0.04041046 -0.009586245
000170 a6 fc 8e bc 30 cb f7 3c 9d fc 69 bc 7b 88 0d bd
       -0.017454457 0.030248255 -0.014281419 -0.034553986
000180 14 16 4e bc f7 72 43 bd 0b c3 a0 bc 03 5d 30 bd
       -0.012578506 -0.04771706 -0.019624254 -0.043057453
000190 ed 13 39 ba a6 28 d5 bb 11 69 a7 3c c2 b0 a8 3c
       -0.0007060159 -0.00650509 0.020435842 0.020592097
0001a0 ce 6e 28 bc b7 dc 76 bc cd f8 81 bd 62 8d 49 3c
       -0.010280324 -0.015067271 -0.06346283 0.012301775
0001b0 43 0b d0 3c 4c c9 07 3c a9 4e 8e bc e6 44 47 bd
       0.025395995 0.008287739 -0.017371492 -0.04864969
0001c0 79 b8 63 bc 3d fa d9 bb c2 51 ab 3c 3c b8 2e bd
       -0.013898962 -0.006652145 0.020913009 -0.04265617
0001d0 7d 1f 0a bd c3 b5 1f bd 2c 09 be 3b db 47 1d ba
       -0.033721436 -0.0389917 0.005799433 -0.0005999782
0001e0 67 2e de bc e9 bd 76 bd 77 10 eb 3b 03 eb 99 3c
       -0.027121736 -0.060239706 0.0071735936 0.01878882
0001f0 1d 55 db bb fb ae 21 3b 81 3f 20 bd f8 b3 f5 3a
       -0.006693496 0.0024670947 -0.039123062 0.0018745651
000200 d0 81 21 bd 52 e0 21 bc 26 35 06 3d a5 6e 78 3c
       -0.03943044 -0.009880142 0.03276553 0.015163098
000210 27 66 b1 3b 12 c2 1d bd d3 b0 c7 3b 86 c0 2c bc
       0.005413789 -0.038515158 0.006094077 -0.010543948
000220 3f 4b b5 bc ca 4e 00 bd f6 9b d6 bc 8e 1e 79 3b
       -0.022130607 -0.03132514 -0.026197415 0.0038012597
000230 6e e0 66 bc 07 6f b9 bc e9 f8 0b bc 71 53 66 3b
       -0.014091594 -0.02263595 -0.0085432315 0.003514495
000240 26 e5 7c bc b4 86 23 3c 1e e7 9a 3c 79 c8 9e bc
       -0.015435493 0.009980846 0.018909033 -0.019382702
000250 43 bd 26 bc 31 34 6b bd 64 2d 1d bc aa a9 18 bd
       -0.010176959 -0.05742282 -0.0095933415 -0.03727118
000260 83 af 49 bd b7 ef 92 3b e2 9a 05 bd 7e 36 63 bd
       -0.049239647 0.0044841426 -0.03261841 -0.05547189
000270 62 da 0b 3d 33 11 aa bc 7f 0f 93 bd d3 13 f6 3c
       0.034143813 -0.020760154 -0.0718069 0.03003875
000280 3a 07 5b bd dc 35 05 3c fb f3 40 bd 0a 31 67 bb
       -0.05347369 0.008130517 -0.047107678 -0.0035277032
000290 16 24 e7 3b 9b 85 09 3d 4f e4 c5 bc 9c d2 5a bd
       0.0070538623 0.03357468 -0.024156718 -0.05342351
0002a0 4f d8 13 bd 46 47 99 bd b5 92 f5 3b e4 af d2 3c
       -0.03609496 -0.074842975 0.0074942955 0.025718637
0002b0 57 a3 89 bc 06 47 ba 3c 23 27 b1 3c 89 33 61 3a
       -0.01680152 0.022738945 0.021625107 0.0008590748
0002c0 44 b5 2f 3d 64 6c 62 bd 3d 6b 36 3c 29 43 48 bd
       0.042897478 -0.05527915 0.011133966 -0.048892174
0002d0 e4 6f e4 bb ca 24 3a bd 06 b8 40 bd 5a 4c 3b bc
       -0.006971346 -0.04544524 -0.0470505 -0.011431778
0002e0 65 97 bd 3c 37 e3 00 3d 4e 1d e0 3c dd 59 1b bd
       0.02314348 0.03146669 0.027357724 -0.037927497
0002f0 c6 25 52 bd 01 02 97 b8 b9 ed 89 be a0 9c 8e 3e
       -0.051305555 -7.200614e-05 -0.2693918 0.2785387
000300 3a 3f 08 be 58 de 93 bd 15 13 56 be bd d7 b0 3e
       -0.13305369 -0.07220143 -0.20905717 0.34539595
000310 9a d7 4f be 2d 4b e1 3d 3c ff 9d be 2c 79 90 3d
       -0.20297089 0.11000667 -0.3085879 0.07054362
000320 1b b4 b1 be 51 7b 3b be c2 14 1a bd 1b 67 99 be
       -0.34707722 -0.1830876 -0.037617452 -0.29961476
000330 90 05 65 3d 31 c6 70 be 0e d7 d8 be 03 84 ae bd
       0.055913508 -0.23513104 -0.42351574 -0.08521273
000340 f2 14 4a bd 21 a6 ae 3d 1e 4a 89 bd 8c 12 26 3d
       -0.04933638 0.0852778 -0.0670359 0.04054503
000350 a3 9f 4d 3e 71 aa 33 be a8 fd 5a be 2c 3f 71 be
       0.20080428 -0.17545487 -0.21385825 -0.23559254
000360 4f f7 b4 be db ba 81 3e 66 c6 db 3c 73 41 bf 3d
       -0.3534493 0.25337872 0.026828002 0.09338655
000370 37 aa 52 bb 63 a9 bb 3d 15 5a d5 b9 74 3b d6 bc
       -0.0032144913 0.09163167 -0.00040693642 -0.026151396
000380 59 14 01 3d d9 6c a2 3d 94 9d 9a 3d 16 71 b2 3d
       0.031513546 0.07930917 0.07549587 0.08712976
000390 f6 00 82 3c 02 1f 96 bc 77 41 ec 3d 74 61 cc bc
       0.015869599 -0.018325333 0.11535924 -0.024948813
0003a0 1c d4 53 3d 86 ef 66 3c b1 19 8a 3d d6 8c eb 3c
       0.051715955 0.014095193 0.067431815 0.02875368
0003b0 e6 74 ba 3c 1d d1 b0 3d c4 56 a2 3d ad f2 69 bc
       0.02276082 0.08633635 0.079267055 -0.01427905
0003c0 5e 57 14 3d e1 e0 a9 3d 39 06 63 3d 74 72 98 3c
       0.036216132 0.08294845 0.055425856 0.018609263
0003d0 f3 2a 13 3d 62 4e 87 3d 6f ea a0 3d cc fd fa 3c
       0.03592963 0.06606747 0.07857215 0.030638598
0003e0 13 d3 3c 3c 7b d5 52 3d f9 ff 94 bc 49 f5 f1 3c
       0.011524933 0.051473122 -0.018188464 0.029535906
0003f0 d2 b7 96 3d e1 e6 1c 3c 4d 8a d8 3d 7a 92 9f 3d
       0.0735928 0.00957653 0.10573254 0.0779161

postmlp.0.bias f4 [64]
000000 84 ad 00 3c 39 1c 37 3d 81 37 1f bc 73 20 81 3c
       0.007853869 0.04470465 -0.009717823 0.015762543
000010 c9 e1 48 3d df 94 1c bd 0e f2 44 3d 2a 43 29 3d
       0.04904345 -0.038227912 0.048082404 0.04132382
000020 6b 86 4c 3d 42 7e 61 bd 2c 58 37 bd 1d a2 90 3c
       0.04993288 -0.05505205 -0.04476182 0.017655427
000030 08 4f 9d bc 51 7e 84 3d 7d 97 34 3d e5 e2 41 bc
       -0.019202724 0.064694054 0.044089783 -0.011833881
000040 03 dc 72 3d a1 63 d8 3c d4 5e 27 bd dc 10 d3 3c
       0.05929185 0.026414694 -0.04086192 0.025764875
000050 23 b9 4b 3d bd b4 dd ba 06 4e 9f 3d 32 2e 7e bd
       0.049737107 -0.0016914826 0.07778554 -0.062055774
000060 fa 7f 0c 3c 54 49 9b 3d fa 26 b9 3b 02 c4 c5 3c
       0.008575434 0.075823456 0.0056503983 0.024141315
000070 fd a3 10 3d af 3b 96 3d 9a f1 ba 3c dc 40 b1 3d
       0.03531264 0.073356025 0.022820283 0.08654949
000080 21 37 58 bd a7 00 69 3d ab d9 9c bd 7f 10 2f bd
       -0.05278695 0.056885388 -0.07658704 -0.04274034
000090 4a ab 15 bd 37 ac 95 3d 79 8d 09 bd 82 51 1d bd
       -0.036540307 0.07308238 -0.033582184 -0.03840781
0000a0 36 59 61 3d d3 5d 86 bc eb 75 91 3c 1d 4a 39 3c
       0.05501672 -0.01640216 0.017756423 0.011309174
0000b0 ed 89 a7 bd 82 f7 96 3b 8f a3 b4 3c c9 58 a5 bc
       -0.08180604 0.004607142 0.022050647 -0.020183938
0000c0 dd f5 e5 bc 50 b3 9d 3d 72 37 99 3c cf b5 1a bd
       -0.028071338 0.07700217 0.018703196 -0.037771042
0000d0 b7 94 ae 3d d2 f4 6e bd c3 50 e3 3c df 73 08 bd
       0.08524459 -0.058338948 0.027748471 -0.03331363
0000e0 c9 0d 39 3c 17 80 04 bd 1e 41 4f bc 81 4d 41 3c
       0.011294791 -0.03234872 -0.0126498025 0.0117982635
0000f0 64 0c 6e 3d 9e b0 49 3d c5 79 bc 3d 51 9b 05 bc
       0.058117285 0.0492407 0.09202913 -0.008154706

postmlp.2.weight f4 [1, 64]
000000 d2 7c 9d bd fd 4d 16 3e 3a c9 2f 3e a6 fb a0 3b
       -0.07689823 0.14678188 0.17166606 0.0049128113
000010 1a 72 fb 3d 15 a5 29 bd 46 1c 4f 3e 2e 81 ad bd
       0.122776225 -0.0414172 0.20225629 -0.08471905
000020 57 b9 1d 3e c2 11 53 bd 07 f0 a9 3b 07 b8 20 bd
       0.15402733 -0.051530607 0.005186084 -0.039238002
000030 56 bf 2f 3e 03 aa 21 3e f9 33 1d 3e 3d 03 96 bd
       0.17162833 0.1578751 0.15351857 -0.073248364
000040 fc b1 3a 3e 3e ff e2 bc 81 02 e8 bc f6 41 21 3e
       0.18231958 -0.0277096 -0.028321506 0.15747818
000050 c5 1c 1c 3e 18 6c 02 3e 00 00 1c 3e 4a 27 d6 bd
       0.1524535 0.12736547 0.15234375 -0.104567125
000060 0f 0a 0b 3e 0f d5 4d 3e bb 32 25 3e 60 d6 a3 bd
       0.13578056 0.20100807 0.16132633 -0.07999873
000070 1a e1 e7 3d 79 37 ef 3d 3e 26 c3 bd 4a bb 1d 3e
       0.113222316 0.116805024 -0.095287785 0.15403476
000080 8d 5c 10 bc 3f 9f 98 bd 3e 91 ed bc 4e 44 30 bd
       -0.008811128 -0.07452249 -0.028999921 -0.04303389
000090 3c 7e 4b 3e 05 6c 38 3e 77 d0 dd 3d 96 2d 3d 3e
       0.19872373 0.18009956 0.10830777 0.18474421
0000a0 97 d7 21 3e f7 31 fc 3d 01 cc 18 3e bb fe 9b bd
       0.15804897 0.123142175 0.14921571 -0.07616945
0000b0 3a 02 30 bd 74 21 d0 bd 85 a0 8f bd 87 53 2a 3e
       -0.042970873 -0.10162631 -0.070130385 0.16633426
0000c0 d8 3b 59 bc f5 65 3d 3e 4b f3 2b bd c9 5d 54 bd
       -0.013258897 0.18495925 -0.04198007 -0.051847253
0000d0 95 b0 03 3e 59 59 e3 bc 4f 42 3e 3e 1e 80 dc ba
       0.1286033 -0.027752565 0.18579982 -0.001682285
0000e0 1f 34 1e 3e 93 9f 37 bd 3b 72 ea bc 00 d2 71 3e
       0.1544957 -0.044829916 -0.028618922 0.23615265
0000f0 b5 34 ef 3d a4 6e 3a 3e 05 9c 2d 3e 4a 14 a8 bd
       0.11679975 0.18206269 0.16954048 -0.08206995
