data/model_best.pt (torch, 402930 bytes, 16 tensors)

node_attention.linear.weight f4 [128, 10]
0	0xbe54d200	-0.20783234
1	0xbdcc2cc6	-0.09969477
2	0xbdac5448	-0.08414513
3	0x3e6fd3f2	0.23420694
4	0x3d7fb5a3	0.06242908
5	0x3e717d9c	0.23583072
6	0xbda05def	-0.078304164
7	0xbe80dd0b	-0.25168642
8	0x3e6f7945	0.23386104
9	0xbe49924b	-0.19684713
10	0xbe9e72f2	-0.3094707
11	0xbe819499	-0.25308684
12	0xbe6912a5	-0.22761019
13	0xbc827730	-0.015925974
14	0xbe554de5	-0.20830496
15	0x3e57b351	0.21064498
16	0x3da8ce67	0.08242493
17	0xbe7943f5	-0.2434233
18	0xbda1c0b9	-0.07898087
19	0x3e578c7d	0.21049686
20	0x3e0329fe	0.12808987
21	0x3e1f11c9	0.15534128
22	0xbe5c44f9	-0.21510686
23	0xbdb8007f	-0.089844696
24	0xbde599c0	-0.11210966
25	0x3e6401cc	0.2226631
26	0xbe1c130b	-0.1524164
27	0x3e99de9a	0.30052644
28	0x3d771c7f	0.06032991
29	0xbd52600a	-0.05136112
30	0x3db75aad	0.08952842
31	0x3e71d414	0.23616058
32	0xbd39d2c6	-0.045367025
33	0x3d72794c	0.05919771
34	0xbe594080	-0.21216011
35	0x3e64fd41	0.22362234
36	0xbe843f19	-0.2582939
37	0x3e7c6e43	0.24651437
38	0x3de34618	0.11097354
39	0x3cb2c1cb	0.021820923
40	0x3e1c0565	0.15236433
41	0x3dba8d8c	0.09109029
42	0xbdda5611	-0.10660947
43	0x3d1a6883	0.037697326
44	0x3dc7c6f1	0.09754742
45	0xbe3c679a	-0.18398896
46	0xbd73afe9	-0.059493933
47	0xbe16cf89	-0.14727606
48	0xbcddfb79	-0.02709745
49	0xbddbd1eb	-0.10733398
50	0xbe1f1303	-0.15534596
51	0xbd5936d5	-0.053030808
52	0xbd7bf537	-0.061513152
53	0xbe72724f	-0.23676418
54	0xbddf8750	-0.10914481
55	0xbe08cf27	-0.13360272
56	0x3d5479d3	0.051873993
57	0xbd93dfaa	-0.07220395
58	0x3e8d191e	0.27558225
59	0x3e9908d5	0.2988955
60	0x3e6ba809	0.23013319
61	0x3e450a55	0.19242223
62	0x3e2dd57f	0.16975974
63	0x3e9bd8af	0.30438754
64	0x3e3de7ae	0.1854541
65	0xbe34d453	-0.1765912
66	0xbe92051a	-0.28519517
67	0x3e9d1b97	0.30685112
68	0xbe15e100	-0.14636612
69	0xbe1ab7f6	-0.15109238
70	0xbe840d27	-0.25791284
71	0xbd70d7f4	-0.0587997
72	0x3e22b3c3	0.15888886
73	0xbc51900a	-0.012790689
74	0xbe896134	-0.26831973
75	0xbe2b0cdc	-0.16704124
76	0x3e2a1ae8	0.16611826
77	0xbde2ec4e	-0.11080228
78	0xbe3c081a	-0.18362466
79	0xbe800bab	-0.25008902
80	0x3c3abc4f	0.011397435
81	0xbe8744f7	-0.26419804
82	0xbcc07ecd	-0.023497963
83	0xbe1e429e	-0.154551
84	0xbc23b1b6	-0.0099911
85	0x3d38af73	0.045089196
86	0xbc3e4468	-0.011612989
87	0x3e84280f	0.25811812
88	0x3dec9b9c	0.11553118
89	0x3dc01f7a	0.09381004
90	0xbcd3813b	-0.025818458
91	0x3e55f991	0.20895983
92	0xbe29830c	-0.16553897
93	0x3e8ee0d2	0.279059
94	0xbdc37a9c	-0.0954487
95	0x3e59d8f3	0.21274166
96	0xbe37815b	-0.17920439
97	0x3e93cb17	0.28865883
98	0xbda4a581	-0.0803938
99	0x3e2745bc	0.16335195
100	0xbe392cd6	-0.1808351
101	0x3e6fe7b3	0.2342823
102	0x3e8d87ef	0.27642772
103	0x3e9ec62c	0.31010568
104	0x3d300ba2	0.042979844
105	0xbe8eb770	-0.27874327
106	0xbe761cce	-0.24034426
107	0xbe935dc1	-0.28782466
108	0xbe5dc4d8	-0.21657121
109	0x3e214729	0.15749802
110	0xbc8654e6	-0.016397905
111	0x3e48128d	0.19538327
112	0x3e89cc67	0.2691376
113	0x3e575d41	0.21031667
114	0x3e5ead8f	0.21745895
115	0xbe92079f	-0.2852144
116	0x3e9940cf	0.29932258
117	0xbe29db9a	-0.16587678
118	0x3e9197b7	0.28436062
119	0xbe03052a	-0.12794939
120	0x3df08f5c	0.11746094
121	0x3e5370c1	0.20648481
122	0xbe83e4c5	-0.25760475
123	0x3e610310	0.21973825
124	0xbd997aed	-0.07494149
125	0x3e4593be	0.1929464
126	0x3e3c6ccd	0.18400879
127	0xbc369f6e	-0.011146409
128	0xbe9e8ee7	-0.309684
129	0x3e9678dd	0.29389086
130	0xbe9686de	-0.2939977
131	0x3e54e791	0.2079146
132	0x3d726b44	0.059184328
133	0x3d30826b	0.043093126
134	0xbe58b4c4	-0.21162707
135	0xbdda3beb	-0.1065596
136	0x3cbf7e6b	0.02337571
137	0xbe522d62	-0.20525125
138	0xbe4b6997	-0.19864498
139	0xbc20d554	-0.009816486
140	0x3e7ee5d1	0.24892356
141	0xbe06897e	-0.13138387
142	0xbd12e76d	-0.035865236
143	0xbe9c445e	-0.3052091
144	0xbe0a75c3	-0.13521485
145	0xbdf97c49	-0.12181909
146	0x3d3530b9	0.04423592
147	0x3e142465	0.14467008
148	0xbe356a9f	-0.17716454
149	0x3e5ad1e9	0.21369137
150	0x3e997f99	0.29980162
151	0xbe69cdfb	-0.22832482
152	0x3e5e9a15	0.21738465
153	0x3e0b6fa4	0.13616806
154	0xbd91bcbb	-0.071160756
155	0xbe755ac5	-0.23960407
156	0xbe91708c	-0.2840618
157	0xbe9da216	-0.30787724
158	0x3e755acd	0.23960419
159	0x3da00712	0.078138486
160	0xbde8a82d	-0.11360202
161	0xbe1c33eb	-0.1525418
162	0xbe590474	-0.21193105
163	0x3d557ba1	0.052119855
164	0x3c7b512c	0.015339177
165	0xbe7a30cd	-0.24432679
166	0xbe60af0b	-0.21941774
167	0xbd928fda	-0.07156344
168	0x3e395495	0.18098672
169	0xbd502a4f	-0.0508216
170	0x3de0bc81	0.10973454
171	0x3e8d91aa	0.27650195
172	0x3e3ec44a	0.18629566
173	0x3e95da0d	0.29267922
174	0xbe041d40	-0.12901783
175	0x3e846725	0.25859943
176	0xbd17692f	-0.036965545
177	0x3d39fad1	0.045405213
178	0x3e332cb3	0.1749752
179	0x3e647f77	0.22314249
180	0x3e05d59c	0.13069767
181	0x3e493995	0.19650872
182	0xbdd139bb	-0.10216089
183	0xbe13deea	-0.14440504
184	0x3c8b1f13	0.01698259
185	0x3e8d1975	0.27558485
186	0xbe4f3777	-0.20236002
187	0x3e39a1ac	0.18128079
188	0xbe9a8179	-0.30176905
189	0x3e6098c0	0.2193327
190	0x3df9e814	0.122024685
191	0x3c96b38d	0.018396163
192	0x3d7b3859	0.061333034
193	0xbe3bf25c	-0.18354172
194	0x3e881ed0	0.26586008
195	0x3e8ebd27	0.27878687
196	0x3dd61e91	0.10455049
197	0xbd5e0c50	-0.05421096
198	0xbe04b50f	-0.12959693
199	0xbe46e6a9	-0.19423927
200	0x3e290f86	0.16509828
201	0x3e44c305	0.19215019
202	0x3e8ed0a3	0.27893552
203	0x3dea5cb5	0.11443464
204	0xbe361218	-0.1778034
205	0xbe2a4473	-0.16627674
206	0x3e646755	0.22305043
207	0x3ceeb8ea	0.029140908
208	0x3ea0273e	0.3127994
209	0xbe20c5b2	-0.15700415
210	0xbe8e9b0f	-0.27852675
211	0x3ce6bc2f	0.028165905
212	0xbdff7137	-0.12472766
213	0xbd711992	-0.058862276
214	0xbd8e7bdd	-0.06957219
215	0xbb1b39d0	-0.0023685582
216	0xbda9921b	-0.082798205
217	0x3e0b433e	0.1359987
218	0x3c503107	0.0127070015
219	0xbe03e858	-0.12881601
220	0x3e4d4ad7	0.2004808
221	0x3e497422	0.19673207
222	0x3cdb9f29	0.026809292
223	0xbc89dfaf	-0.016830293
224	0x3e42e314	0.19031936
225	0x3e16db42	0.14732078
226	0xbd64a423	-0.055820595
227	0x3e83272c	0.25615823
228	0x3dbdf600	0.092754364
229	0xbe5523a1	-0.20814373
230	0x3e069abd	0.13144965
231	0x3e7cb39a	0.24677888
232	0x3dcdd021	0.10049463
233	0xbe8f23c2	-0.2795697
234	0x3e9491c1	0.2901745
235	0x3e4d67b2	0.20059088
236	0xbc8dbb94	-0.017301358
237	0xbdecc115	-0.11560265
238	0xbdb87e6f	-0.0900849
239	0xbe38dca2	-0.18052915
240	0x3e665db9	0.2249669
241	0xbdab142e	-0.08353458
242	0xbe62d0f6	-0.22150025
243	0xbc92f955	-0.017941156
244	0xbdbd2f54	-0.09237543
245	0x3e47a04b	0.1949474
246	0x3e923845	0.28558555
247	0x3d06ecb0	0.032940567
248	0xbe95a328	-0.2922604
249	0xbd217bc9	-0.03942469
250	0x3dc9bfc8	0.098510325
251	0xbe96061e	-0.29301542
252	0xbdbbcd0e	-0.091699705
253	0xbe850ae9	-0.25984886
254	0xbd86868c	-0.065686315
255	0xbe2f6008	-0.17126477

node_attention.linear.bias f4 [128]
0	0xbd96c922	-0.07362582
1	0xbe05b437	-0.13057028
2	0xbe32afdc	-0.17449898
3	0x3e9c5314	0.30532134
4	0xbe00da5a	-0.12583295
5	0xbe82b3b8	-0.2552774
6	0xbe9f259e	-0.31083387
7	0xbd977a1a	-0.07396336
8	0xbe954a57	-0.2915828
9	0xbe8dadbb	-0.27671608
10	0x3d79b9f3	0.06096835
11	0x3be2baa8	0.006919224
12	0x3df035ca	0.117290094
13	0x3d2766b6	0.040869437
14	0x3e1b55e8	0.1516949
15	0x3de1acae	0.11019264
16	0x3c96a867	0.018390847
17	0xbd7b05d4	-0.061284855
18	0x3e9b0ef8	0.30284858
19	0x3df127fb	0.11775204
20	0x3e21dbd1	0.1580651
21	0xbe14e595	-0.14540704
22	0xbdbf3022	-0.093353525
23	0xbe8f297e	-0.27961344
24	0x3e43dd6c	0.19127434
25	0x3e7902e2	0.24317506
26	0x3dc614b9	0.09671921
27	0xbe15c1c9	-0.14624704
28	0x3e305512	0.17219952
29	0xbdf897a2	-0.12138297
30	0xbe2b6e74	-0.16741353
31	0xbdd62b69	-0.104574986
32	0xbd26c6e6	-0.040717028
33	0xbe9fd2af	-0.31215426
34	0x3e2d03dc	0.16896003
35	0xbe93d053	-0.28869876
36	0xbdef8366	-0.11694984
37	0x3e82ab44	0.2552129
38	0x3e5b0a1c	0.21390575
39	0xb9122302	-0.00013936686
40	0xbe9221d3	-0.2854143
41	0xbdb2d39a	-0.08731766
42	0x3e096298	0.13416517
43	0x3d6a4595	0.057195265
44	0xbb2a216b	-0.002595986
45	0xbe65e08b	-0.22448938
46	0x3e9b838a	0.30373794
47	0x3e50010f	0.20312904
48	0x3e628b46	0.22123441
49	0xbdc0d68e	-0.09415923
50	0xbe3a7cc2	-0.18211654
51	0xbe9b07dd	-0.30279437
52	0xbe9a37a7	-0.30120584
53	0x3e2e3fde	0.17016551
54	0xbdda3575	-0.10654727
55	0xbe3fa028	-0.18713439
56	0x3d091e59	0.033476207
57	0xbe47792c	-0.19479817
58	0xbe8d3d6e	-0.2758593
59	0x3e9ba2f0	0.3039775
60	0x3e4f6350	0.20252728
61	0xbd915919	-0.07097072
62	0xbe27043d	-0.1631021
63	0x3dd38539	0.103281446
64	0x3de1e4ca	0.11029966
65	0x3ced94a4	0.029001541
66	0x3e5e7e0e	0.21727774
67	0x3e79c356	0.24390921
68	0xbe8e5cd4	-0.27805197
69	0x3db85bb6	0.090018675
70	0x3d04e998	0.032449335
71	0xbd01713b	-0.031602126
72	0x3e6ae7ed	0.22940035
73	0x3de488d8	0.111589134
74	0x3e2cc1ce	0.16870806
75	0x3d984991	0.07435907
76	0x3df36b03	0.11885645
77	0x3e61f6b7	0.2206677
78	0x3e9d85a2	0.30766016
79	0x3e2f28a7	0.17105351
80	0xbe4ec5be	-0.2019262
81	0xbe22f228	-0.15912688
82	0xbe862020	-0.26196384
83	0xbe476f91	-0.19476153
84	0x3e038a4b	0.12845723
85	0x3d9a52b6	0.07535307
86	0x3d00e288	0.031466037
87	0xbc0d31f1	-0.008617864
88	0x3df73f01	0.12072564
89	0x3e7ea572	0.248678
90	0xbe1f081a	-0.15530434
91	0x3df914e1	0.121621855
92	0x3db61fd5	0.0889279
93	0xbdf7d8ed	-0.12101922
94	0x3dd3bd41	0.10338832
95	0xbe4ceca0	-0.2001214
96	0xbdf2e6b1	-0.11860407
97	0x3dc39879	0.09550566
98	0x3e252816	0.16128573
99	0xbcbcb683	-0.023036247
100	0xbd0b529e	-0.034014337
101	0xbdd8a744	-0.105787784
102	0xbda2ebf9	-0.079551645
103	0xbe2ac217	-0.16675602
104	0x3e8de797	0.27715752
105	0x3de2e3d9	0.11078615
106	0x3e9e511c	0.30921257
107	0x3e65007a	0.22363463
108	0xbd0ff7cb	-0.035148423
109	0x3e62430b	0.22095887
110	0x3dbeadca	0.093104914
111	0x3d1e0343	0.03857733
112	0x3e37e0e5	0.17956884
113	0xbe8d3c36	-0.27585
114	0x3d37dde9	0.044889364
115	0x3e66f2a2	0.22553495
116	0x3dace3a7	0.08441859
117	0xbe90aa6d	-0.28255025
118	0x3c7bda92	0.015371935
119	0xbde259d0	-0.110522866
120	0x3e3ef6b3	0.18648796
121	0xbd30d04a	-0.04316739
122	0x3e86a052	0.2629419
123	0x3e5f33bd	0.2179708
124	0x3e53e725	0.20693643
125	0xbe9770b5	-0.29578176
126	0x3e8d9ab6	0.27657098
127	0xbce103e4	-0.027467676

node_attention.context_vector.weight f4 [1, 128]
0	0x3d4b22aa	0.049593605
1	0xbd11a4a0	-0.03555739
2	0xbc6fe077	-0.014640919
3	0x3db02f2a	0.08602746
4	0x3d917822	0.07102992
5	0xbd74222c	-0.0596029
6	0xbc687895	-0.014188905
7	0xbc819f59	-0.015823053
8	0x3d92a91f	0.071611635
9	0xbc76b4a8	-0.01505772
10	0xbc83a9ec	-0.016072236
11	0xbd3edc89	-0.046597037
12	0xbd9c8f29	-0.07644493
13	0xbd1e94f2	-0.038716264
14	0xbd879c80	-0.06621647
15	0x3d069405	0.032856006
16	0x3d4a1495	0.049336035
17	0xbc1a2527	-0.009408272
18	0x3c76e610	0.0150695
19	0x3cb00176	0.021485072
20	0x3d1638aa	0.036675133
21	0xbc251a8e	-0.010077132
22	0x3cc5d2f7	0.024148447
23	0x3d677ab5	0.056513507
24	0x3d05a0e6	0.032624148
25	0xbcb9601a	-0.022628833
26	0xbbd14417	-0.006386291
27	0xbd766bab	-0.060161274
28	0xbd7c9f3c	-0.061675295
29	0xbd8fd9ce	-0.07023965
30	0x3d28ecdf	0.041241523
31	0xbd96fc9c	-0.073724
32	0x3d00e32c	0.031466648
33	0x3c6f0434	0.014588404
34	0x3cbca397	0.023027224
35	0xbd371038	-0.0446932
36	0xbc11120b	-0.008854399
37	0xbd90bb3b	-0.070669614
38	0x3d83b525	0.06431035
39	0x3d97b6e8	0.074079335
40	0x39fd8efd	0.00048362455
41	0x3cfad628	0.030619696
42	0x3d7b52b2	0.06135816
43	0x3c954d66	0.018225383
44	0xbdaa8b90	-0.08327401
45	0x3d13b127	0.036057618
46	0xbd2f2292	-0.04275758
47	0x3db21e3d	0.08697174
48	0x3d9a892d	0.075456955
49	0xbda94a7c	-0.0826616
50	0x3cd56416	0.026048701
51	0x3bfe5d49	0.0077625853
52	0x3c222e65	0.009898757
53	0x3c815e62	0.015792076
54	0xbd057380	-0.032580853
55	0x3dab2c72	0.08358087
56	0x3cdaf01c	0.026725821
57	0x3d9fd1c4	0.078036815
58	0x3d0a1bba	0.03371785
59	0x3d7c4eb6	0.061598502
60	0x3d9b60d8	0.07586831
61	0xbd5e6c75	-0.05430265
62	0xbd0f8736	-0.035041057
63	0x3d00eec0	0.03147769
64	0xbd9cc181	-0.076540954
65	0xbc32c03d	-0.010910091
66	0xbce3334f	-0.027734427
67	0x3d1fac98	0.038982958
68	0xbc65526f	-0.0139967045
69	0xbd76a0f2	-0.060212083
70	0x3d7cb08f	0.061691817
71	0x3dae454a	0.085093096
72	0xbd70a74f	-0.058753308
73	0x3d8884c2	0.066659465
74	0xbd5916b7	-0.05300018
75	0xbc879e31	-0.016554924
76	0xbd988fe8	-0.07449323
77	0xbd0c058d	-0.03418498
78	0xbd3d8263	-0.046266925
79	0x3d21cf00	0.03950405
80	0xbd609eaa	-0.054838814
81	0xbdae6d5a	-0.08516951
82	0x3b7f732e	0.0038978565
83	0x3d6a648a	0.057224788
84	0xbbe10950	-0.006867565
85	0x3d454c18	0.04816827
86	0xbcbb8400	-0.022890091
87	0x3d17c782	0.0370555
88	0xbcee5844	-0.029094823
89	0x3d9cde94	0.07659641
90	0xbd51ae22	-0.051191457
91	0xbcc97754	-0.024593033
92	0x3d8360ba	0.064149335
93	0xbb39c669	-0.0028347021
94	0xbcabbe5a	-0.02096479
95	0x3d28af7c	0.04118298
96	0x3da5fd99	0.081050105
97	0xbce863b9	-0.028367864
98	0xbd9b5f71	-0.075865634
99	0x3d7c1392	0.0615421
100	0xbc8e1823	-0.017345494
101	0x3cd156df	0.025554119
102	0xbc1bbe9d	-0.009505895
103	0x3da4afb6	0.08041327
104	0x3c5ee3b7	0.013604096
105	0xbd1ab00c	-0.037765548
106	0xbd90b3a2	-0.07065512
107	0x3d8db03b	0.06918379
108	0xbc932668	-0.01796265
109	0x3d9165e5	0.07099513
110	0xbdb160de	-0.08661054
111	0xbcd06f6d	-0.025443757
112	0x3d7ffaec	0.062495157
113	0x3d65ee24	0.05613531
114	0xbc44981a	-0.011999154
115	0xbc7bd7f6	-0.015371313
116	0x3c88fe38	0.016722783
117	0x3d18b806	0.037284873
118	0xbc4711ce	-0.012150241
119	0x3d629cb0	0.05532521
120	0xba04042b	-0.00050360215
121	0xbda0fea1	-0.078610666
122	0xbd3fb889	-0.046806846
123	0x3db2b3dc	0.08725712
124	0xbd22d46b	-0.03975336
125	0xbccf5af8	-0.025311932
126	0xbda739fc	-0.081653565
127	0x3d3c9df2	0.046049066

cut_attention.linear.weight f4 [128, 61]
0	0x3df49efc	0.11944386
1	0xbd1bbf3f	-0.038024183
2	0x3c800323	0.015626496
3	0x3d00c177	0.031434502
4	0x3ca5ab84	0.020223387
5	0x3d667997	0.0562683
6	0xbd45c607	-0.048284557
7	0xbd875e73	-0.06609812
8	0x3da417b2	0.08012332
9	0x3da4e140	0.080507755
10	0xbd788387	-0.06067231
11	0x3cd11957	0.025524778
12	0xbdad4496	-0.08460347
13	0xbd56a366	-0.052401923
14	0x3bdbe763	0.006710933
15	0x3c3fa2df	0.011696546
16	0x3dafc926	0.08583288
17	0x3df0bab1	0.117543586
18	0xbd379052	-0.04481537
19	0x3d9621c7	0.07330661
20	0xbdf1b5ad	-0.1180223
21	0xba88fed7	-0.0010451925
22	0x3c385234	0.0112500675
23	0xbc2cf93d	-0.01055747
24	0x3de04a51	0.10951675
25	0x3d2bed87	0.04197457
26	0xbdf0c5c2	-0.11756469
27	0x3d0beb43	0.03415991
28	0x3dc3964e	0.09550153
29	0x3d26a596	0.04068526
30	0xbe01378b	-0.12618844
31	0xbe0156cd	-0.12630768
32	0x3d2efd90	0.042722285
33	0xbd965cec	-0.07341942
34	0x3d1499ae	0.036279373
35	0x3d965e77	0.073422365
36	0x3df6bd3b	0.120478116
37	0x3cc890f8	0.024483189
38	0xbd82caba	-0.06386323
39	0xbcce32aa	-0.025170643
40	0xbd83c349	-0.06433732
41	0x3e028e0c	0.12749499
42	0x3cb9e4e9	0.02269216
43	0xbdeb0818	-0.11476153
44	0x3da24051	0.07922424
45	0x3d8f213a	0.06988759
46	0xbd52b04e	-0.05143767
47	0xbd4bd967	-0.049767878
48	0x3c6bae60	0.014384836
49	0x3d4b16b5	0.049582202
50	0x3de65474	0.11246577
51	0xbd26404b	-0.04058866
52	0x3cf3d2e1	0.02976364
53	0x3dfd5cd4	0.12371221
54	0x3c1520b2	0.009102033
55	0x3dc46bd3	0.09590878
56	0xbda76479	-0.081734605
57	0x3dcc3d9d	0.09972689
58	0x3dbf0ec7	0.093289904
59	0xbd5b1906	-0.05349066
60	0xbcc4a2e3	-0.024003452
61	0xbb4b8920	-0.0031057075
62	0xbdf4419d	-0.11926577
63	0xbd20ab09	-0.03922561
64	0x3c3b07f8	0.011415474
65	0x3d940a66	0.07228546
66	0x3c600824	0.013673816
67	0xbd936f1f	-0.07198929
68	0xbd5d7466	-0.054066084
69	0x3d87f95d	0.06639359
70	0xbdb9f5de	-0.090800986
71	0x3888123a	6.48838e-05
72	0xbdcf113d	-0.1011071
73	0x3c731a1f	0.014837771
74	0xbdf3c03a	-0.11901899
75	0x3d3d5b3b	0.046229582
76	0x3da19b2f	0.07890927
77	0xbd9b17ef	-0.07572924
78	0xbd48096d	-0.048837114
79	0x3df6c1a4	0.12048653
80	0xbdad36fa	-0.084577516
81	0xbc8697e1	-0.016429843
82	0xbdf2abfa	-0.11849208
83	0xbce4330a	-0.027856369
84	0xbdf768fa	-0.120805696
85	0xbdd7f64e	-0.10545026
86	0x3dee0dda	0.11623736
87	0x3dbfc7d9	0.0936429
88	0x3d4709b8	0.048593253
89	0xbdc5736b	-0.09641155
90	0xbd153c8f	-0.036434706
91	0xbdff9454	-0.12479463
92	0x3ceef1e1	0.029168071
93	0xbc95e3ba	-0.018297065
94	0xbc658008	-0.014007576
95	0xbd6d2c63	-0.05790366
96	0x3d6974bd	0.056996096
97	0xbcf06442	-0.029344682
98	0x3d39ba42	0.045343645
99	0x3ddb146a	0.10697253
100	0x3d8daa3b	0.069172345
101	0xbdf9c4bc	-0.12195727
102	0x3c885edc	0.016646795
103	0xbce28f55	-0.027656237
104	0x3d9bfff2	0.07617177
105	0x3dabcbbe	0.0838847
106	0x3cc73eb2	0.024321888
107	0x3c515baa	0.012778202
108	0x3d9579a8	0.07298595
109	0x3d489f5f	0.048980113
110	0xbd70f79d	-0.058829892
111	0xbdf3f56f	-0.11912047
112	0xbc736547	-0.014855689
113	0x3c0e3091	0.008678571
114	0xbcadb142	-0.021202687
115	0x3dcd23e2	0.1001661
116	0xbdf6aa7d	-0.12044237
117	0xbd234eb7	-0.03986999
118	0xbd9b476c	-0.07581982
119	0xbe010751	-0.12600447
120	0x3ded85ca	0.11597784
121	0xbdcc55f1	-0.099773295
122	0x3d5f4688	0.054510623
123	0x3d354f6c	0.044265196
124	0x3c679bc5	0.014136259
125	0xbccd260b	-0.025042554
126	0xbd346c30	-0.04404849
127	0xbdb8ef0a	-0.09029968
128	0x3dc6560d	0.09684382
129	0x3d9815d5	0.07426039
130	0x3dbe98db	0.093064986
131	0xbdc00d45	-0.09377531
132	0xbdd59894	-0.104294926
133	0xbca96789	-0.020679252
134	0x3bd8b1e7	0.0066130045
135	0x3ba987c4	0.005173655
136	0xbd813335	-0.06308595
137	0xbd125783	-0.03572799
138	0x3d63a8ce	0.055580907
139	0xbd5a33e7	-0.053272154
140	0x3da388c2	0.07985069
141	0x3da8c768	0.08241159
142	0xbdcb90fd	-0.09939764
143	0xbd3d9178	-0.046281308
144	0x3d61bf42	0.05511404
145	0x3c8b7fec	0.017028771
146	0x3c855fa1	0.016280951
147	0x3da3fa0c	0.08006677
148	0xbd468f8e	-0.04847675
149	0xbd81f4db	-0.063455306
150	0xbd0e4024	-0.034729138
151	0xbcd5adf8	-0.026083931
152	0xbdefdae8	-0.11711675
153	0x3c35d951	0.011099176
154	0x3dbce269	0.09222872
155	0xbdcc7b46	-0.0998445
156	0xbdc651de	-0.09683584
157	0x3dc0e27d	0.09418199
158	0xbdcf8673	-0.10133066
159	0xbca83d7f	-0.020537136
160	0x3d55a086	0.05215504
161	0xbe017e28	-0.12645781
162	0x3cd907e9	0.02649303
163	0xbbb7dfbd	-0.0056113885
164	0xbd877eac	-0.066159576
165	0xbde7796c	-0.11302456
166	0x3d54ce04	0.051954284
167	0xbdc184c3	-0.094491504
168	0x3dc58585	0.096446075
169	0xbcc18235	-0.023621658
170	0xbc49031d	-0.012268809
171	0xbb48cf94	-0.0030641304
172	0xbd321ac4	-0.043482557
173	0x3c7cf7d7	0.015439949
174	0xbdddca20	-0.10829568
175	0x3b195aed	0.0023400143
176	0x3df756b1	0.12077082
177	0xbd6e5db1	-0.05819482
178	0xbc3e0614	-0.011598129
179	0x3d217cc6	0.039425634
180	0x3da42c43	0.08016255
181	0x3cd0e585	0.025500068
182	0xbd8cea4a	-0.068806246
183	0x3d9f8fee	0.07791124
184	0x3a8a2e8b	0.0010542435
185	0x3cde8580	0.027163267
186	0xbdbf7733	-0.09348907
187	0xbd00bb10	-0.031428397
188	0xbd3aac06	-0.04557421
189	0xbc4f5136	-0.01265364
190	0xbdeb7ae7	-0.11498051
191	0x3e01fef7	0.12694918
192	0xbde1598e	-0.11003409
193	0xbd00bc60	-0.03142965
194	0xbd4728ac	-0.048622772
195	0xbd452f33	-0.048140716
196	0x3dcca493	0.099923275
197	0xbd008d90	-0.031385005
198	0x3dca2580	0.09870434
199	0x3d7c3237	0.061571326
200	0xba6395e8	-0.00086817006
201	0xbccf96fd	-0.025340552
202	0xbcb33aa9	-0.021878557
203	0xbd731700	-0.059348106
204	0x3d4c4963	0.049874675
205	0x3d373b19	0.044734094
206	0xbd947098	-0.07248038
207	0x3dded684	0.10880759
208	0xbd931ee2	-0.07183625
209	0xbb64c7ea	-0.0034909197
210	0xbd67243f	-0.05643105
211	0x3dead229	0.11465866
212	0x3d5dd417	0.054157343
213	0x3e01bf3b	0.12670605
214	0xbd267e2f	-0.04064768
215	0x3db395ff	0.08768844
216	0xbd758845	-0.05994441
217	0xbdb216c0	-0.086957455
218	0x3da3860f	0.07984554
219	0x3de10a14	0.109882504
220	0xbcdcd50e	-0.026957061
221	0xbd4c0bcd	-0.04981594
222	0xbd279141	-0.04091001
223	0xbdba1eb2	-0.09087886
224	0x3cbc6797	0.022998614
225	0x3d93ecc4	0.07222894
226	0xbc97b03e	-0.018516656
227	0x3d198e30	0.037489116
228	0xbd7c9257	-0.061662998
229	0x3dbbe7b9	0.09175057
230	0xbcc6dabb	-0.02427422
231	0xbd8d7fbf	-0.06909131
232	0xbdca1072	-0.09866418
233	0x3d9aab21	0.075521715
234	0x3dc6bd83	0.09704115
235	0x3d88e2db	0.06683894
236	0xbddeedf6	-0.10885231
237	0x3cd782ae	0.02630743
238	0x3d763706	0.06011107
239	0x3d989d6a	0.07451899
240	0x3d4625cc	0.04837589
241	0xbde0982c	-0.109665245
242	0xbd816777	-0.063185625
243	0x3dc05959	0.09392042
244	0xbdacdeef	-0.08440959
245	0x3dd12296	0.10211675
246	0xbcbd55e6	-0.023112249
247	0xbd04fbcf	-0.032466706
248	0x3dce16aa	0.100629166
249	0x3d28beb8	0.04119751
250	0xbd455d63	-0.048184764
251	0x3da54272	0.08069314
252	0xbdd3ccd8	-0.10341805
253	0xbdb6dc74	-0.08928767
254	0x3dd699d6	0.104785606
255	0xbd963e23	-0.073360704

cut_attention.linear.bias f4 [128]
0	0x3d982ef0	0.074308276
1	0xbdfa9bc3	-0.122367404
2	0xbdd1fcc2	-0.10253288
3	0x3bdd8f30	0.006761454
4	0x3ddab4c3	0.10679009
5	0x3de9fc94	0.114251286
6	0xbda3699d	-0.079791285
7	0x3d943b05	0.072378196
8	0x3dc91c7d	0.09819887
9	0x3cbfd6fb	0.02341794
10	0xbde7c1eb	-0.11316284
11	0x3cdc06b9	0.026858674
12	0x3d5988f5	0.053109128
13	0x3d0ce393	0.03439672
14	0xbd3ab6a2	-0.04558433
15	0xbd6f73fb	-0.058460217
16	0xbc26d629	-0.010182896
17	0xbd7f9fb3	-0.06240816
18	0xbddd5af1	-0.10808361
19	0xbd28e57f	-0.04123449
20	0xbdad16ca	-0.08451612
21	0x3d7576aa	0.05992762
22	0xbc85e351	-0.016343744
23	0xbdf1a1c0	-0.117984295
24	0xbd897296	-0.06711309
25	0x3d54dfaf	0.051971134
26	0x3d099c26	0.03359618
27	0x3d278f08	0.04090789
28	0xbda7a843	-0.0818639
29	0xbdfe6d59	-0.124232
30	0xbdc44e22	-0.09585215
31	0x3d0f0524	0.03491701
32	0xbdd6e1e9	-0.10492308
33	0x3d69566d	0.056967188
34	0xbc45d48b	-0.0120746
35	0xbd2ae286	-0.041719936
36	0xbd79346d	-0.060841013
37	0xbd943953	-0.07237496
38	0x3df1dd72	0.118098155
39	0xbd9037cc	-0.070418924
40	0x3dbe319c	0.09286806
41	0x3dbc6c50	0.092003465
42	0xbdc9ae6d	-0.09847722
43	0x3d8d049c	0.06885645
44	0x3d02c05d	0.031921733
45	0x3d09c10e	0.033631377
46	0xbd69c5f6	-0.057073556
47	0x3cc1c02d	0.023651207
48	0xbde8d910	-0.113695264
49	0xbe00f205	-0.12592323
50	0xbd229e8e	-0.03970199
51	0xbdb89dd7	-0.090144806
52	0xbd136366	-0.035983466
53	0x3ddb2e12	0.107021466
54	0x3d9cc1c7	0.076541476
55	0x3da5a817	0.08088701
56	0x3d578289	0.052614722
57	0xbcf5ecd3	-0.030020153
58	0x3d778d4c	0.060437486
59	0x3dd4616e	0.10370146
60	0x3c94bf5b	0.018157652
61	0xbde4acb7	-0.11165755
62	0x3d03c20a	0.032167472
63	0x3debb7fe	0.11509703
64	0x3da44851	0.08021606
65	0x3df21dcb	0.11822089
66	0x3d86d7fe	0.06584166
67	0x3d98c488	0.0745936
68	0x3d820b1c	0.06349775
69	0x3d699d26	0.057034634
70	0xbd3f6aeb	-0.046732824
71	0xbd545305	-0.051836986
72	0xbb53fcb1	-0.003234666
73	0x3d76ed61	0.060284976
74	0x3d4d5dd1	0.0501383
75	0x3dbf8d64	0.0935314
76	0x3dbba70a	0.091627195
77	0x3d206f83	0.039168846
78	0x3c59d1cb	0.013294647
79	0xbd8b4eda	-0.06802149
80	0x3da1c6ee	0.07899271
81	0x3df65360	0.12027621
82	0x3c98f477	0.018671257
83	0x3d2d5ed6	0.04232677
84	0x3d65cf93	0.05610616
85	0xbc1adb3b	-0.009451683
86	0x3db10114	0.08642784
87	0xbda71784	-0.08158782
88	0xbd7cae82	-0.06168986
89	0x3de75d56	0.11297099
90	0x3dfccfe7	0.12344342
91	0x3e021022	0.12701467
92	0xbdc64968	-0.0968197
93	0xbd615bde	-0.055019252
94	0x3d9c8239	0.076420255
95	0x3d909a3e	0.07060669
96	0xbd93d9d3	-0.07219281
97	0xbd56bf4f	-0.05242854
98	0xbd91b884	-0.07115272
99	0xbd19e349	-0.03757027
100	0x3ccaafc8	0.024742022
101	0x3c0d56d7	0.008626661
102	0x3dca45b4	0.09876576
103	0xbd8ae269	-0.067814656
104	0xbdfe66d4	-0.12421957
105	0xbbb2a0e3	-0.005451308
106	0xbdd78ad5	-0.10524527
107	0x3db0795c	0.086168975
108	0x3da96eb4	0.08273068
109	0xbbbae058	-0.0057030134
110	0x3de5eaeb	0.11226448
111	0xbdfe06a8	-0.12403613
112	0xbdc46426	-0.09589414
113	0xbd026b3c	-0.031840548
114	0x3c2e45f1	0.0106367925
115	0xbd8b2e31	-0.0679592
116	0x3d119527	0.035542633
117	0xbc77f2cc	-0.015133571
118	0xbdcb72dc	-0.09934017
119	0xbd89b409	-0.06723792
120	0xbdd9ddde	-0.10638021
121	0x3cdefbbe	0.02721965
122	0x3c35ea27	0.01110319
123	0xbcbe69b1	-0.023243757
124	0xbda22228	-0.07916671
125	0xbdeda61e	-0.1160395
126	0x3dfb9daf	0.12285935
127	0xbd355c39	-0.044277404

cut_attention.context_vector.weight f4 [1, 128]
0	0xbd92098f	-0.071307294
1	0xbd476883	-0.048683655
2	0xbdaada48	-0.08342415
3	0x3bc2b1d6	0.00594161
4	0xbd45eb46	-0.048320077
5	0xb9bbecb7	-0.00035843786
6	0x3d1eb647	0.038748052
7	0x3d1dd4e0	0.03853309
8	0x3d45d6c1	0.04830051
9	0xbdb4de3c	-0.0883145
10	0xbd848245	-0.064701594
11	0xbc04ec8a	-0.008113036
12	0x3d541063	0.05177344
13	0x3ca8f28a	0.020623464
14	0x3daa8289	0.08325679
15	0xbdad184e	-0.084519014
16	0xbcffdfcf	-0.03123465
17	0xbd48ce68	-0.04902497
18	0x3d6c120a	0.05763439
19	0x3ca97237	0.020684345
20	0xbce94303	-0.028474336
21	0xbd5918f5	-0.053002317
22	0xbd7cda1f	-0.061731454
23	0xbbcffd95	-0.006347368
24	0xbc18f9bd	-0.009336886
25	0xbd867b2b	-0.06566461
26	0xbcb33eb3	-0.021880483
27	0x3d9fab65	0.07796363
28	0xbdaca78a	-0.08430393
29	0x3da64aac	0.08119711
30	0xbd2d6251	-0.04233009
31	0x3d806c77	0.06270688
32	0x3bb7b4b3	0.005606258
33	0xbb83ecd5	-0.0040260353
34	0xbcf950d4	-0.03043405
35	0x3d0eb9f1	0.034845296
36	0xbd98bdd2	-0.0745808
37	0xbd9acaab	-0.07558187
38	0x3d8e7044	0.06955007
39	0xbcddd40e	-0.027078655
40	0x3c7d700d	0.0154686095
41	0x3ccde319	0.025132703
42	0x3c75fb7b	0.015013571
43	0x3be86edc	0.0070932936
44	0x3d61da52	0.055139847
45	0x3d8903a6	0.06690149
46	0xbd2fb828	-0.042900234
47	0xbceffe46	-0.029296052
48	0xbd588d29	-0.052868996
49	0xbcfde284	-0.0309918
50	0xbd62543b	-0.05525611
51	0xbd1621f0	-0.03665346
52	0xbd8cab92	-0.06868662
53	0x3d2e0f38	0.042494982
54	0xbd9ec28b	-0.0775195
55	0x3d93ea8a	0.07222469
56	0x3d0e8486	0.034794353
57	0x3d664ee5	0.056227583
58	0x3c28b14f	0.01029618
59	0x3db19619	0.08671207
60	0xbd151cdf	-0.036404487
61	0x3d94c5da	0.072643
62	0xbd6001d4	-0.054689243
63	0xbd9c558c	-0.07633504
64	0xbcfcdb24	-0.030866213
65	0xbcff5f2e	-0.031173315
66	0x3bc87cd1	0.006118395
67	0xbd7442d2	-0.059634037
68	0x3d49a016	0.049224935
69	0x3c8b314c	0.01699128
70	0x3d9e4849	0.07728631
71	0x3d6b543a	0.05745337
72	0xbb64401f	-0.0034828258
73	0xbd81cb20	-0.06337571
74	0xbda29ebd	-0.07940433
75	0x3d50de17	0.05099305
76	0xbd9b907b	-0.07595917
77	0x3d0e6b88	0.03477052
78	0xbd48aab6	-0.048990928
79	0xbd2196e8	-0.039450556
80	0xbcba044e	-0.02270713
81	0x3cab791a	0.02093177
82	0x3cbf32b4	0.023339607
83	0x3be30247	0.0069277617
84	0x3d79eaec	0.061015055
85	0xbc14e196	-0.009086987
86	0xbca7fb57	-0.02050559
87	0xbd0a45e6	-0.033758067
88	0xbd870f02	-0.065946594
89	0x3aedfae8	0.0018156441
90	0xbb1691ce	-0.002297509
91	0xbd2b73aa	-0.041858353
92	0xbd8529e1	-0.065021284
93	0xbdb176a3	-0.08665206
94	0xbda599b1	-0.08085955
95	0xbd9cd371	-0.07657517
96	0xbd99d8f8	-0.07512087
97	0xbd33acbb	-0.0438659
98	0x3c1c4611	0.0095381895
99	0xbc4626e9	-0.012094238
100	0xbd55d3fc	-0.052204117
101	0x3d516514	0.051121786
102	0xbd863e92	-0.06554903
103	0x3d6ed775	0.058310945
104	0x3d985ae3	0.0743921
105	0x3cc71705	0.024302969
106	0xbd9a74c4	-0.075418025
107	0x3d0037c6	0.03130319
108	0x3ca51908	0.020153537
109	0xbd88fa3f	-0.06688356
110	0xbceb424b	-0.028718134
111	0xbd930c37	-0.07180064
112	0xbd4391db	-0.04774652
113	0x3d06b174	0.032884076
114	0x3d4e5c42	0.050380953
115	0x3d9abcef	0.075555675
116	0x3cf9981d	0.030468041
117	0x3d62c84b	0.055366796
118	0xbdb0d053	-0.08633485
119	0x3db25fe6	0.087096974
120	0x3d07c6d7	0.033148613
121	0x3c46896c	0.012117725
122	0xbc173b06	-0.009230381
123	0xba9d9eb2	-0.0012025444
124	0x3d95e9f0	0.07320011
125	0xbd940c04	-0.07228854
126	0x3d9a46ab	0.0753301
127	0xbb674b5a	-0.0035292716

cell_attention.linear.weight f4 [128, 56]
0	0x3d1d54f0	0.03841108
1	0x3d32a9d2	0.043618985
2	0x3db83185	0.0899382
3	0xbde8264e	-0.11335431
4	0xbd972012	-0.07379164
5	0x3d98148e	0.074257955
6	0x3d4e8f28	0.050429493
7	0xbdbb3bb9	-0.091422506
8	0x3d9f2d61	0.07772327
9	0x3e0819df	0.13291119
10	0x3ce47862	0.027889434
11	0xbd87f8ac	-0.06639227
12	0xbd96cd38	-0.07363361
13	0xbd7be446	-0.061496995
14	0x3de23268	0.110447705
15	0x3ccdff74	0.025146224
16	0x3d86382f	0.06553685
17	0x3dc866f1	0.097852595
18	0xbc4404a3	-0.011963996
19	0x3d2f55e0	0.042806506
20	0x3da9a128	0.08282691
21	0x3d2cbe32	0.042173572
22	0xbd7403d2	-0.059573956
23	0x3cfd8f79	0.030952202
24	0x3d6e6793	0.058204245
25	0x3da105bb	0.07862421
26	0x3d7d280f	0.06180578
27	0x3d966dce	0.07345162
28	0xbdad557a	-0.08463569
29	0xbd911e77	-0.07085889
30	0xbdc2ec56	-0.09517734
31	0xbdaccb67	-0.084372334
32	0xba3ac0c2	-0.000712406
33	0x3e0767c4	0.13223177
34	0x3da48b6e	0.080344066
35	0x3d7a3975	0.06108995
36	0xbd7fde7d	-0.06246804
37	0x3d816424	0.063179284
38	0x3b9ca6d1	0.0047806283
39	0xbdf2f81e	-0.11863731
40	0xbc606d48	-0.01369793
41	0x3ddce049	0.107849665
42	0x3d59a527	0.053136017
43	0xbcede10b	-0.029037973
44	0x3dad693a	0.08467336
45	0x3d2832e4	0.041064158
46	0xbe065dea	-0.13121763
47	0xbcaed9d0	-0.021344095
48	0x3da7bbd8	0.08190125
49	0xbca51627	-0.020152165
50	0x3e0534d3	0.13008432
51	0xbd85380a	-0.06504829
52	0x3de1fcf2	0.110345736
53	0x3de1ca24	0.110248834
54	0xbd2f175a	-0.04274688
55	0x3d739b86	0.05947449
56	0xbc6b42b8	-0.014359169
57	0xbd43e5a6	-0.04782643
58	0xbd60bb2c	-0.054866
59	0xbda96113	-0.082704686
60	0x3cb3752c	0.021906458
61	0xbcb1336b	-0.021630963
62	0x3cc76e59	0.02434461
63	0x3b11c96e	0.0022245306
64	0x3d6399ca	0.055566587
65	0xbd0df66b	-0.03465883
66	0x3ddec8dd	0.108781554
67	0x3ba9a459	0.0051770625
68	0xbca8bbdd	-0.020597393
69	0x3cb0b007	0.021568311
70	0x3dcf7229	0.10129196
71	0xbda30ed0	-0.0796181
72	0xbcd108f3	-0.025516963
73	0xbe002b13	-0.12516432
74	0xbd9c76da	-0.07639857
75	0x3e08cc9f	0.13359307
76	0xbc93ae82	-0.018027548
77	0x3d9798ee	0.07402216
78	0xbd3189b2	-0.043344207
79	0xbdea4b49	-0.11440141
80	0x3d82c5da	0.063853934
81	0xbd09f83a	-0.033683993
82	0x3ce240e3	0.027618831
83	0xbc184cac	-0.009295624
84	0x3de48ada	0.11159296
85	0x3df1c77b	0.11805626
86	0xbda5764b	-0.08079203
87	0xbdbfa8f4	-0.09358397
88	0x3da7586a	0.081711605
89	0x3d93ded1	0.07220233
90	0x3df7c735	0.120985426
91	0xbc4b7f3a	-0.01242047
92	0x3d95268d	0.072827436
93	0xbd8e7660	-0.06956172
94	0x3dd742a9	0.10510761
95	0x3a82e75a	0.0009987161
96	0xbdeb87d7	-0.11500519
97	0xbc649f34	-0.013953973
98	0xbdabefae	-0.08395325
99	0x3aeb24da	0.001794006
100	0x3e08bdde	0.13353679
101	0x3d4f65da	0.050634243
102	0x3c98a08f	0.018631248
103	0x3dfb8907	0.12281995
104	0x3de71c75	0.112847246
105	0x3dc8f69a	0.098126605
106	0xbda3ef77	-0.08004659
107	0xbddd6465	-0.10810164
108	0xbdbb3b2c	-0.091421455
109	0x3db5d7b2	0.08879031
110	0x3cabd9f9	0.02097796
111	0x3d162cf2	0.036663957
112	0x3e04e4ab	0.12977855
113	0x3daaf581	0.083476074
114	0xbc35622b	-0.011070768
115	0x3dbedb0a	0.09319122
116	0xbc78526c	-0.01515637
117	0xbd826f54	-0.063688904
118	0xbc1ff05b	-0.009761895
119	0xbd270cec	-0.040783808
120	0xbdec0b64	-0.1152561
121	0x3c90e639	0.017687904
122	0xbd159284	-0.03651668
123	0x3d0ca01f	0.03433239
124	0xbdecae43	-0.11556675
125	0x3c937081	0.017997982
126	0x3cd5aae3	0.026082462
127	0xbda2ccb5	-0.07949201
128	0xbc491362	-0.012272688
129	0x3d2f8939	0.042855475
130	0x3cffa95f	0.031208692
131	0xbdc9f32e	-0.09860836
132	0x3d43ab63	0.04777087
133	0x3de9fdfd	0.114253975
134	0xbd17d136	-0.037064753
135	0xbc272b9b	-0.010203267
136	0xbdafd01f	-0.08584618
137	0x3c90aef7	0.017661555
138	0xbd726bdd	-0.059184898
139	0x3da7b896	0.08189504
140	0xbe04b33d	-0.12958999
141	0x3dc0502d	0.09390292
142	0x3e022072	0.1270769
143	0xbd950827	-0.072769456
144	0x3e078996	0.13236079
145	0xbdf8f196	-0.12155454
146	0xbdc7d316	-0.09757058
147	0x3ddd958c	0.108195394
148	0x3b412b59	0.00294753
149	0x3dedc25a	0.11609335
150	0x3e01008a	0.12597862
151	0x3df9121c	0.12161657
152	0xbd878188	-0.06616503
153	0xbdd662f2	-0.10468091
154	0x3d7094f7	0.058735814
155	0xbc996375	-0.018724183
156	0x3da467b9	0.08027596
157	0xbcd7b738	-0.026332483
158	0x3dd6b4dd	0.10483716
159	0xbd4ae3b7	-0.049533572
160	0xbde1350d	-0.10996447
161	0xb991592e	-0.00027723
162	0xbce6bae8	-0.028165296
163	0xbd300ba1	-0.04297984
164	0xbdd0118f	-0.10159599
165	0x3d4d0c03	0.050060283
166	0x3c53ecb2	0.0129348505
167	0xbdcc94ea	-0.099893406
168	0x3d3b46e4	0.045721903
169	0xbd18149d	-0.037129033
170	0xbc910777	-0.017703755
171	0xbd91fa83	-0.071278594
172	0x3d325b03	0.043543827
173	0xbd58f0bc	-0.052963957
174	0x3d2f1e77	0.042753663
175	0xbd8730d4	-0.0660111
176	0x3d2c94df	0.042134162
177	0x3cce97ed	0.025218928
178	0x3dc6f1c3	0.09714081
179	0xbd0a8a2f	-0.03382319
180	0x3d0b5129	0.034012947
181	0xbd0de56e	-0.03464263
182	0x3d12f1f9	0.035875294
183	0x3d430674	0.047613576
184	0x3daf74d8	0.08567208
185	0xbdfe7737	-0.12425082
186	0x3d36db93	0.044642996
187	0x3de26695	0.11054722
188	0x3dd2fbcd	0.103019334
189	0x39abca5f	0.0003276644
190	0x3dd43664	0.10361937
191	0xbc3cecee	-0.011531098
192	0xbc8f9ba7	-0.017530276
193	0x3dc28fc6	0.09500079
194	0x3cb16ba5	0.021657774
195	0x3ceeea55	0.029164473
196	0x3e0358a9	0.1282679
197	0xbd9523f0	-0.07282245
198	0x3ca274a8	0.019831017
199	0x3dccc850	0.09999144
200	0x3c9a924c	0.018868588
201	0xbd9f5dfb	-0.07781597
202	0xbdaf2128	-0.08551246
203	0xbcb2f214	-0.021843947
204	0x3d95a01d	0.0730593
205	0x3dea4179	0.11438269
206	0xbdbc917e	-0.09207438
207	0xbd017ecd	-0.031615067
208	0x3d1c5c84	0.038174167
209	0xbcffd165	-0.031227777
210	0xbde66eaf	-0.1125158
211	0x3df4cccd	0.11953125
212	0xbb228a2b	-0.0024801593
213	0x3de34936	0.11097948
214	0xbdc9775d	-0.0983722
215	0xbd8a587e	-0.0675516
216	0x3daea458	0.0852744
217	0x3d50b12c	0.050950214
218	0x3d38bd29	0.045102272
219	0xbdba8507	-0.09107404
220	0x3decc5e1	0.1156118
221	0xbd39eff2	-0.045394845
222	0xbddaee36	-0.106899664
223	0x3c8b940f	0.017038373
224	0x3e06c978	0.13162792
225	0x3da122dd	0.07867978
226	0x3d20d655	0.039266903
227	0x3c577b41	0.013151945
228	0xbdc74657	-0.09730213
229	0xbd2eb03d	-0.042648543
230	0xbdc31c9f	-0.095269434
231	0x3d2919db	0.041284423
232	0x3dd9afc7	0.1062923
233	0xbd23b78a	-0.03996996
234	0xbd9b99b1	-0.07597674
235	0x3d093571	0.03349823
236	0xbc8dd5b6	-0.01731382
237	0xbd0c5e0f	-0.03426939
238	0x3dad1eb0	0.08453119
239	0xbdad594f	-0.084643
240	0xbd0c548a	-0.03426031
241	0x3db5c2c4	0.08875039
242	0xbde6c228	-0.11267501
243	0x3e07364e	0.1320431
244	0x3decbfd3	0.11560025
245	0xbe027d9f	-0.12743233
246	0xbe0018b9	-0.12509431
247	0x3dc3de0d	0.09563837
248	0x3c517ea5	0.012786542
249	0xbda5c8fc	-0.08094975
250	0xbdf7706a	-0.12081988
251	0x3dd855bd	0.10563228
252	0x3d6d8e31	0.057996932
253	0xbdf8e520	-0.12153077
254	0xbd485855	-0.048912365
255	0x3de59046	0.112091586

cell_attention.linear.bias f4 [128]
0	0x3ddd985c	0.10820076
1	0x3e06062d	0.13088293
2	0x3b1ffbea	0.0024411627
3	0xbe03536d	-0.12824793
4	0xbdce781d	-0.100815035
5	0x3dae9b60	0.08525729
6	0xbd29ff00	-0.041502953
7	0x3de9e8e6	0.11421375
8	0xbd96d03c	-0.07363936
9	0xbd584b40	-0.05280614
10	0x3dacdc06	0.08440404
11	0x3d3160ab	0.04330508
12	0x3d8de30f	0.069280736
13	0xbcf65195	-0.030068198
14	0xbda376c1	-0.07981635
15	0x3d4111b1	0.047136012
16	0xbd7963de	-0.060886256
17	0x3da43bda	0.08019228
18	0x3d5f62c1	0.05453754
19	0xbdcb122b	-0.09915575
20	0xbdaf82dd	-0.08569882
21	0x3e03d8a1	0.12875606
22	0xbddcccfa	-0.10781284
23	0xbb77097e	-0.0037694867
24	0xbc5ce702	-0.013482811
25	0x3cca904c	0.02472701
26	0x3dd93edc	0.106076926
27	0x3d60c5c3	0.0548761
28	0x3dc6b63f	0.097027294
29	0x3d856181	0.06512738
30	0x3caab1e1	0.020836772
31	0x3d4e2d9b	0.05033646
32	0xbddafd98	-0.106929004
33	0xbcd87a41	-0.026425483
34	0xbd0a2e48	-0.033735543
35	0xbdfba4a8	-0.12287265
36	0xbd8e67fa	-0.06953426
37	0xbd925a64	-0.07146147
38	0x3d3ce870	0.046120107
39	0x3d23ba72	0.03997273
40	0x3d907447	0.07053428
41	0xbc680010	-0.014160171
42	0xbdb3d225	-0.08780316
43	0x3ddaab70	0.1067723
44	0x3df34c34	0.11879769
45	0x3cc47c9a	0.023985196
46	0xbdc75be6	-0.09734325
47	0x3d1135b7	0.035451617
48	0xbdc9bf60	-0.09850955
49	0xbe04dc4a	-0.12974659
50	0xbdaada58	-0.08342427
51	0x3cfb020e	0.030640628
52	0x3dc4b05a	0.09603949
53	0x3d49929e	0.04921209
54	0x3d3e8628	0.04651466
55	0x3dcdf657	0.10056751
56	0xbbd2882b	-0.006424924
57	0x3d794eb4	0.060866073
58	0xbda7c59e	-0.08191989
59	0x3db7c051	0.08972228
60	0xbce7a6e6	-0.028277826
61	0xbd2e8dcb	-0.042615693
62	0x3dc33571	0.095316775
63	0xbdfd70a6	-0.123750016
64	0xbd192739	-0.03739092
65	0x3dbc7f65	0.09203986
66	0xbdef7c00	-0.11693573
67	0xbd1062b2	-0.035250373
68	0x3d7bd539	0.06148264
69	0xbda5d020	-0.08096337
70	0x3c8de31b	0.017320206
71	0x3d52c308	0.051455528
72	0x3d7be245	0.061495084
73	0x3de79a2b	0.11308702
74	0x3c4ced0b	0.012507687
75	0x3d1eaccd	0.038739014
76	0xbe02b2cb	-0.12763517
77	0x3c06cdd7	0.008227787
78	0x3e0832bf	0.13300608
79	0x3d59aef5	0.053145368
80	0xbdc5675a	-0.09638853
81	0x3d724f44	0.059157625
82	0xbd30a161	-0.043122653
83	0xbdc60059	-0.09668035
84	0xbda7af6f	-0.08187758
85	0xbde0c0fe	-0.1097431
86	0x3dbf2084	0.09332374
87	0xbe039d70	-0.12853026
88	0xbdf4b04c	-0.119476885
89	0xbd1e3cb4	-0.03863211
90	0xbdfba061	-0.12286449
91	0x3db05781	0.0861044
92	0xbde78760	-0.113051176
93	0xbe021a59	-0.12705363
94	0x3dc90162	0.09814717
95	0xbdbb19c6	-0.09135775
96	0xbd127688	-0.03575757
97	0xbdceb3f2	-0.100929156
98	0xbde1a717	-0.11018198
99	0x3db3bca1	0.087762125
100	0xbe05b05b	-0.13055556
101	0xbe01abd9	-0.12663211
102	0x3df9914f	0.121859185
103	0xbdf0b4d6	-0.11753242
104	0x3d1aa7ff	0.03775787
105	0x3de0a664	0.109692365
106	0xbd064db9	-0.032788966
107	0xbda38f0d	-0.07986269
108	0xbdb9744e	-0.090553865
109	0x3d2c0f02	0.0420065
110	0x3df8ff51	0.12158073
111	0x3e03e19e	0.12879035
112	0xbdc8735c	-0.09787628
113	0xbd762361	-0.060092334
114	0xbdeb8fd9	-0.11502046
115	0xbddf5edd	-0.109067656
116	0xbd36054c	-0.044438645
117	0xbdda05f8	-0.1064567
118	0xbdd57e72	-0.10424508
119	0x3e03f3ab	0.1288592
120	0xbdd386c5	-0.103284396
121	0xbc10e5a8	-0.008843817
122	0xbdbdfdd4	-0.092769295
123	0xbb47180e	-0.0030379328
124	0x3ce003f3	0.027345633
125	0x3d2492a5	0.040178914
126	0xbd55729d	-0.052111257
127	0xbd260e41	-0.040540937

cell_attention.context_vector.weight f4 [1, 128]
0	0xbda941f0	-0.0826453
1	0x3d8cab3f	0.068686
2	0x3ca7ddee	0.020491567
3	0x3c3103d2	0.0108041335
4	0xbd6a805c	-0.05725132
5	0xbc78cce8	-0.015185572
6	0x3d5f033d	0.054446448
7	0xbd5c49a2	-0.05378116
8	0x3cf7e7d4	0.030261911
9	0xbcdde31a	-0.02708583
10	0xbd86e9c0	-0.06587553
11	0x3d2f0e4e	0.04273825
12	0x3d4406e4	0.047858134
13	0x3d883394	0.06650463
14	0xbd8bfa37	-0.06834834
15	0xbd3c46ce	-0.045965962
16	0xbbf5738a	-0.00749058
17	0xbb99bb44	-0.0046915133
18	0x3bc6b7ea	0.0060644047
19	0xbba625cc	-0.0050704237
20	0x3d5c34a7	0.05376115
21	0x3c6caa25	0.0144448625
22	0xbcc09f65	-0.023513505
23	0x3dacffc4	0.08447221
24	0xbd2ff82c	-0.042961285
25	0xbcdc9f18	-0.02693133
26	0xbca465e4	-0.020068116
27	0x3bcb3e98	0.00620253
28	0x3d9b895a	0.07594557
29	0x3caa64b0	0.020799965
30	0x3db0b38c	0.08627996
31	0xbc2138ce	-0.009840203
32	0xbcc9c5ee	-0.024630513
33	0x3b323e21	0.0027197676
34	0xbc9e5eac	-0.019332252
35	0xbd03b271	-0.032152597
36	0xbb5278d4	-0.0032115476
37	0x3b0debda	0.002165547
38	0x3c6f6366	0.014611101
39	0xbc4b7779	-0.012418621
40	0xbd3ad473	-0.045612764
41	0x3cca1b6c	0.024671279
42	0xbd126a65	-0.035745997
43	0xbd8fa644	-0.070141345
44	0x3d7a213a	0.061066844
45	0xbd8208c4	-0.06349328
46	0xbc9881af	-0.018616525
47	0xbd8dbe06	-0.0692101
48	0xbd67c48e	-0.056583934
49	0x3ad01096	0.0015874084
50	0x3d9aa13c	0.07550284
51	0x39d46cc1	0.0004051682
52	0x3ad7eec7	0.001647436
53	0x3db3807c	0.08764741
54	0x3c021fd8	0.007942162
55	0xbba0e5ad	-0.004910192
56	0xbbe3ac3f	-0.0069480236
57	0x3b9d0cda	0.004792792
58	0xbcc9ae92	-0.024619374
59	0x3d9792f6	0.074010774
60	0xbda5e56e	-0.08100401
61	0xbcaa2a65	-0.020772168
62	0x3d04540d	0.03230672
63	0xbca7c0d9	-0.0204777
64	0xbd34c41b	-0.044132333
65	0x3cbb34e4	0.022852369
66	0x3ccebec4	0.025237449
67	0xbc87aa1a	-0.016560603
68	0xbd1bec30	-0.038067043
69	0xbd8ba04f	-0.06817686
70	0x3d98a600	0.07453537
71	0xbca51bdc	-0.020154886
72	0x3d3dee4f	0.046369847
73	0x3be88e97	0.007097076
74	0xbd5470d2	-0.051865406
75	0x3cbfcbaf	0.023412554
76	0x3d34c815	0.044136126
77	0x3d146b7d	0.03623532
78	0xbc9c4f98	-0.019080922
79	0xbb79c1d5	-0.0038109918
80	0x3d9426dc	0.07233974
81	0xbc14e0a8	-0.009086765
82	0x3d57306f	0.052536424
83	0xbd851c6d	-0.064995624
84	0x3cdb9472	0.026804183
85	0xbd86b6db	-0.06577846
86	0xbcb56cce	-0.022146609
87	0x3d7637f6	0.060111962
88	0x3c1e5d37	0.009665779
89	0xbd80c9dc	-0.062885016
90	0xbdb3d47b	-0.08780762
91	0xbc584610	-0.013200298
92	0xbbf6dcc9	-0.007533644
93	0xbd0bb746	-0.03411033
94	0xbcc76da4	-0.024344273
95	0x3d58b87b	0.05291031
96	0x3d75ecca	0.060040273
97	0xbd3ac1ad	-0.04559486
98	0x3d61674b	0.05503015
99	0x3db2c6d8	0.08729333
100	0x3d987118	0.07443446
101	0x3d90c457	0.07068699
102	0x3c99c886	0.018772375
103	0xbbf01098	-0.007326197
104	0x3da7aa07	0.08186727
105	0x3daec84c	0.08534297
106	0x3c079160	0.008274406
107	0x3d0e847a	0.03479431
108	0x3db41f16	0.08794992
109	0x3d9ae1fc	0.07562634
110	0xbcd225ad	-0.02565273
111	0xbca9ffa9	-0.020751791
112	0x3d91c8cf	0.07118379
113	0x3b88c6b1	0.0041740765
114	0x3d0bc35f	0.034121867
115	0xbcce8e38	-0.0252143
116	0x3cb1ff66	0.021728229
117	0xba9e9d41	-0.0012101309
118	0xbdb2fb44	-0.08739331
119	0xbc98cb1d	-0.01865154
120	0xbd712737	-0.05887529
121	0x3d0295cc	0.03188114
122	0xbd3eccb4	-0.04658194
123	0xbcb90a63	-0.02258796
124	0x3d55b4f3	0.05217452
125	0xbd037b69	-0.032100115
126	0xbda33a96	-0.07970159
127	0xbd6be7bc	-0.057594046

mlp.0.weight f4 [128, 127]
0	0x3b06b74a	0.0020556026
1	0xbd45d37d	-0.048297394
2	0xbbd62cb0	-0.006536089
3	0x3c86ce15	0.01645569
4	0x3c78d405	0.015187268
5	0xbd081f34	-0.033232883
6	0xbc8abba8	-0.016935185
7	0xbd8e8c64	-0.06960371
8	0x3cfad252	0.030617867
9	0x3cb8b16c	0.022545539
10	0xbdb383ee	-0.08765398
11	0xbd6a447b	-0.057194214
12	0x3d77c2fe	0.060488693
13	0xbd544230	-0.051820934
14	0xbd5b97b9	-0.05361149
15	0x3c057e6e	0.008147819
16	0x3d6f6f51	0.05845577
17	0xbd8a8f64	-0.06765631
18	0x3c0107bf	0.007875382
19	0x3c899014	0.016792335
20	0xbda938d8	-0.08262795
21	0x3da76f3b	0.081755124
22	0x3d321649	0.043478284
23	0x3ce7ee7b	0.028311959
24	0xbceed368	-0.02915354
25	0x3c5aca72	0.013353931
26	0x3d801c4a	0.06255396
27	0x3db3d50a	0.08780868
28	0xbd5a1424	-0.053241864
29	0xbb17b5ef	-0.0023149212
30	0xbda866d4	-0.08222738
31	0xbd7785d1	-0.06043035
32	0xbdb2429a	-0.087041095
33	0xbd6298d4	-0.05532153
34	0xbd417f9f	-0.04724085
35	0xbd9b44ec	-0.07581505
36	0x3d47fb80	0.048823833
37	0x3d4f17ca	0.050559796
38	0xbd7ae39e	-0.06125223
39	0xbd090377	-0.03345057
40	0xbd8898d3	-0.06669774
41	0x3cee833b	0.02911531
42	0xbcdecf7b	-0.027198544
43	0x3cd7d7b7	0.026347978
44	0xbd295a0f	-0.041345652
45	0x3d5d09ff	0.05396461
46	0xbc4f8a47	-0.012667245
47	0xbca8a274	-0.020585276
48	0xbc0b8290	-0.008515015
49	0xbcaf9228	-0.021431997
50	0xbc6252e7	-0.013813711
51	0x3a42ed20	0.0007435847
52	0xbdc097a8	-0.09403926
53	0x3d1250e6	0.035721682
54	0x3d79edd5	0.06101783
55	0x3db8978b	0.090132795
56	0xbbda91db	-0.0066702194
57	0x3daa2003	0.08306887
58	0x3daec48a	0.085335806
59	0xbd5f6503	-0.05453969
60	0x3dc59721	0.09647966
61	0x3ca61712	0.020274673
62	0x3ceb5de9	0.028731303
63	0x3dad18c4	0.08451989
64	0x3cf1e000	0.029525757
65	0x3d9b831d	0.07593367
66	0xbcd6a7f1	-0.026203128
67	0x3c06268d	0.008187902
68	0xbc75b040	-0.014995635
69	0xbd457c1a	-0.048214056
70	0xbdb3e44e	-0.0878378
71	0x3c6b05f3	0.01434468
72	0x3d3d8c38	0.0462763
73	0xbca04c47	-0.019567622
74	0x3d998f88	0.074980795
75	0xbd7c93ab	-0.061664265
76	0x3c123800	0.008924484
77	0x3da18e7c	0.07888505
78	0xbd98e0e9	-0.07464773
79	0x3dbd4edc	0.09243557
80	0x3dcf10f7	0.10110658
81	0xbc6bd591	-0.01439418
82	0x3a386d7b	0.0007035357
83	0xbd352f0c	-0.04423432
84	0xbd9ab321	-0.075536974
85	0x3d9afb53	0.075674675
86	0xbcd707db	-0.026248863
87	0xbcb9b0f7	-0.022667391
88	0x3d508cd5	0.050915558
89	0x3d88c161	0.06677509
90	0xbda6bbc0	-0.08141279
91	0x3dc98f02	0.0984173
92	0x3d7cb7da	0.061698772
93	0x3c6b4cac	0.014361542
94	0x3d21f7ab	0.039542835
95	0x3b6afd0a	0.003585639
96	0xbd6ec005	-0.058288593
97	0xbd809469	-0.06278307
98	0xbc94e39b	-0.018174937
99	0xbd9813b0	-0.0742563
100	0x3d956780	0.07295132
101	0x3d9fa004	0.077941924
102	0xbcc9a634	-0.024615385
103	0xbd0879f3	-0.033319425
104	0x3d92743e	0.07151078
105	0xba14f8c4	-0.0005682821
106	0x3d68d496	0.056843363
107	0x3db5282b	0.08845552
108	0xbd8f2484	-0.06989387
109	0xbd37180c	-0.044700667
110	0x3dccb4aa	0.099953964
111	0xbc96afbf	-0.01839435
112	0xbd941695	-0.0723087
113	0x3d8f3a85	0.069935836
114	0xbcfa36b5	-0.030543664
115	0xbba309c0	-0.0049755275
116	0xbd32f301	-0.043688778
117	0xbc52b29c	-0.012859967
118	0xbd9f65bd	-0.07783077
119	0x3d682ffa	0.05668638
120	0x3cd7f8d9	0.026363777
121	0xbc8fe62c	-0.01756581
122	0x3bac476b	0.005257537
123	0xbd83ef21	-0.064420946
124	0xbd9412d2	-0.07230152
125	0x3d9901a9	0.0747102
126	0x3d475c3a	0.04867194
127	0xbdd7cbff	-0.10536956
128	0xbcde8ddc	-0.027167253
129	0xbe081164	-0.13287884
130	0xbb474114	-0.003040378
131	0xbd8817bf	-0.06645154
132	0xbd70990a	-0.0587397
133	0x3d0a70b4	0.03379889
134	0xbd8f995c	-0.07011673
135	0xbda48cb7	-0.08034652
136	0xbbdae4d0	-0.0066801086
137	0xbd6ae11f	-0.0573436
138	0xbd942e0f	-0.072353475
139	0x3c32d735	0.010915567
140	0x3d3d9ffd	0.046295155
141	0x3d5375ac	0.051625893
142	0x3d9f2897	0.07771414
143	0x3cd44fcb	0.025916955
144	0xbd9d4c80	-0.07680607
145	0xbb5cfcf5	-0.003372011
146	0xbcb18f7b	-0.021674862
147	0xbd9cbf13	-0.07653632
148	0x3becccc1	0.007226557
149	0xbd951493	-0.07279315
150	0xbc54ed9b	-0.012996103
151	0xbd346d16	-0.044049345
152	0xbd053af4	-0.032526925
153	0x3d343066	0.04399147
154	0x3d3e25f3	0.04642291
155	0xbd12a5ba	-0.03580258
156	0x3d952db1	0.072841056
157	0xbd93965a	-0.07206412
158	0xbbb0a5b0	-0.0053908452
159	0x3d9183bf	0.07105207
160	0x3c8b6b2b	0.017018875
161	0x3db07012	0.08615126
162	0xbb0cf0f6	-0.0021505929
163	0x3d7719b6	0.060327254
164	0xbb4f6a32	-0.003164899
165	0x3c20e1fb	0.009819503
166	0xbcdab306	-0.026696693
167	0xbd2cd0d1	-0.04219133
168	0x3c70437e	0.014664529
169	0xbd852dca	-0.06502874
170	0xbcea9e5a	-0.028639961
171	0x3ca13eb3	0.019683218
172	0x3c06d5aa	0.008229652
173	0xbda7f3e9	-0.08200819
174	0x3d2102dd	0.03930937
175	0xbd2ae308	-0.04172042
176	0x3d95ae76	0.073086664
177	0xba67776e	-0.0008829747
178	0x3d4c8620	0.0499326
179	0xbd542851	-0.05179626
180	0xbcdbed90	-0.026846677
181	0x3d6038b0	0.05474156
182	0x3d7a988a	0.06118063
183	0xbda5763c	-0.08079192
184	0x3d86b7c4	0.06578019
185	0x3bd2f004	0.0064373035
186	0xbda1a122	-0.07892062
187	0x3d144d4f	0.03620654
188	0xbd637b03	-0.055537235
189	0x3dc40ee8	0.09573156
190	0x3d99075b	0.07472106
191	0xbcdd1a5d	-0.02699011
192	0x3d4da00f	0.050201472
193	0x3cbbed05	0.022940168
194	0x3db1e56c	0.08686337
195	0x3dae4dae	0.0851091
196	0x3bb5069e	0.0055244705
197	0xbd24b81d	-0.040214647
198	0x3d900439	0.070320554
199	0xbda27de5	-0.07934169
200	0xbcaa8da5	-0.020819495
201	0xbd6c88a5	-0.057747502
202	0xbd8863a0	-0.06659627
203	0xbdb79b50	-0.089651704
204	0x3d3a77c9	0.045524392
205	0xbd2a9eef	-0.041655477
206	0xbda0ee74	-0.07857981
207	0xbcde9fa9	-0.027175741
208	0xbce07957	-0.02740161
209	0xbdbf05e1	-0.09327293
210	0x3d780d6d	0.06055968
211	0xbc71b8bd	-0.014753518
212	0xbce22cc2	-0.027609233
213	0xbd7141a3	-0.058900487
214	0x3d8bceed	0.06826577
215	0x3c88f2f1	0.016717406
216	0xbd318bcf	-0.043346222
217	0xbd3223e0	-0.043491244
218	0xbceca0a2	-0.02888519
219	0x3cb7a723	0.022418564
220	0xbaa4778f	-0.0012547838
221	0xbd5c7215	-0.053819735
222	0xbdbccf00	-0.092191696
223	0xbcc57b01	-0.024106504
224	0xbdb58db1	-0.08864916
225	0x3daaa435	0.08332101
226	0x3d927690	0.0715152
227	0xbd05e01d	-0.032684434
228	0x3d544a08	0.051828414
229	0xbd0441f9	-0.03228948
230	0xbd7d83fa	-0.06189344
231	0xbd5fa1c5	-0.054597635
232	0x3d127aa2	0.035761483
233	0x3db3ec4d	0.08785305
234	0xbccaacff	-0.024740694
235	0x3d8e502a	0.06948884
236	0x3d30aa1e	0.043130986
237	0xbc5430fe	-0.012951134
238	0x3b9cb575	0.0047823736
239	0x3cfb76fe	0.030696388
240	0xbd748ec0	-0.05970645
241	0xbc114220	-0.008865863
242	0xbd7ad43b	-0.061237555
243	0xbdaf9eba	-0.085751966
244	0xbc8b12e8	-0.016976789
245	0xbd885c7a	-0.066582635
246	0xbcbcaed7	-0.023032589
247	0x3d1f8d96	0.038953386
248	0xbd75bbed	-0.059993673
249	0xbd94412f	-0.07238995
250	0x3ccb551b	0.024820855
251	0x3c707c4e	0.014678074
252	0xbd515b30	-0.051112354
253	0xbcb196f8	-0.021678433
254	0xbdda2a01	-0.10652543
255	0xbafb2a3d	-0.0019162368
